saved_bots/baseline/ppo.pt (torch, 425748 bytes, 15 tensors)

layers.0.weight f4 [64, 748]
000000 c6 68 a9 3c 41 20 81 bc 68 dc 05 3c 6b 9b 89 3c
       0.020679843 -0.01576245 0.008170225 0.016797742
000010 6a 3c 84 bc 12 b0 f1 3c a7 13 f9 b9 8c 4e f3 3c
       -0.016142089 0.029502902 -0.00047507623 0.02970054
000020 8e 64 12 bc 1b b7 77 3c 5c bd 87 3c 48 36 cf 3c
       -0.008935107 0.015119339 0.016569786 0.025294438
000030 42 e4 ad 3c 82 b9 c9 3b b1 9c 19 3c 81 3d f3 3b
       0.021227006 0.0061561475 0.009375737 0.0074231033
000040 99 b6 80 3c 6f 94 a9 3c ea f2 3f 3d 23 95 f7 3c
       0.01571207 0.020700661 0.04686252 0.030222481
000050 61 d1 d9 3a 59 d3 87 bc e0 1d 40 bb e3 99 30 bc
       0.0016618186 -0.01658027 -0.0029314682 -0.010778877
000060 de 4d 0b 3c db b0 fd 3b 6b 6d 27 3d de d8 d2 3c
       0.008502452 0.00774203 0.040875833 0.025738176
000070 a4 d4 d6 bc 66 20 e1 3c a7 41 40 bc 73 7c 4d 3d
       -0.026224442 0.02748127 -0.011734403 0.050167512
000080 9e 84 ee 3c 90 fa 5b bc 3c e0 be bc 3c 06 d7 bb
       0.029115971 -0.013426438 -0.023300283 -0.0065620225
000090 59 6b 44 3d d9 1e 9b 3b 9a fd e0 3c 3d 59 9a 3b
       0.047953937 0.004733902 0.027464677 0.004710345
0000a0 c5 f4 4a 3d ea 7a 1d 3c 2f 44 5a 3d cc 7e ec 3b
       0.049549837 0.0096118245 0.05328768 0.007217264
0000b0 13 75 8d bc 8e 29 c2 3c 0e bd 15 3c a1 90 7d 3c
       -0.01726774 0.023701455 0.009139312 0.015476377
0000c0 d6 0e a2 3b 1f 70 4d 3b ea f6 b5 bc e4 b8 bd bb
       0.0049456162 0.0031347347 -0.022212464 -0.005789863
0000d0 cd e3 1b bb f4 68 77 bc c5 10 b3 3c e5 80 64 3d
       -0.0023786903 -0.015100706 0.021858582 0.055786986
0000e0 72 54 50 3c bb ba 40 bc 34 76 25 3d 2a 63 d7 3c
       0.012715446 -0.01176327 0.04039593 0.026292402
0000f0 3f 78 2a bc 06 d3 34 3d 0f d8 26 3d bc f8 87 3d
       -0.010404645 0.04414656 0.040733393 0.06639239
000100 21 4d 1d 3c 75 0a 8e 3b 51 c2 02 3b 41 3d 22 3c
       0.0096009085 0.0043347427 0.0019952247 0.009902299
000110 e1 21 a0 39 d7 98 a7 bc af bb 12 3d d6 0f de b9
       0.0003054282 -0.020458622 0.03582352 -0.00042354938
000120 cc 88 0b 3d 8b 98 9d 3c 4e 87 cc 3c 7e f9 f9 3c
       0.034066007 0.019237777 0.024966862 0.030514475
000130 bc 2b ab 3a 1e 15 28 3d ba 06 ac bc 30 2e 00 3d
       0.0013059299 0.041035764 -0.020999301 0.031294048
000140 ad c9 0b bc 84 d0 81 bc 0c 96 85 3c 05 6b a9 3c
       -0.00853197 -0.015846498 0.0163069 0.020680914
000150 3c 40 0f 3d cc 9a b2 bb 94 e6 55 bb 79 c8 12 3d
       0.034973368 -0.005450582 -0.0032638656 0.035835717
000160 23 d6 28 bb ff d8 ca 3c 24 50 21 3d 4e e1 b8 bc
       -0.00257624 0.024761675 0.03938307 -0.022568371
000170 5b af d4 3c ff b1 59 3c f9 e9 3c bc 27 9e f3 bb
       0.025962522 0.0132870665 -0.011530393 -0.0074346247
000180 b4 ae a7 3c 8d 0a b2 3c 3b a5 0a bd 00 6b ac 3b
       0.020469047 0.021733547 -0.033848982 0.005261779
000190 13 a0 15 3d fe f3 06 3c 57 35 12 3d a9 6f e3 3c
       0.03652961 0.008236883 0.0356954 0.027763205
0001a0 4a 89 30 bc 8e 7f 92 bb ea 70 4b 3d 7c 83 cb 3c
       -0.01077492 -0.004470772 0.04966823 0.02484297
0001b0 da f4 2b 3d cc 56 91 3c 7d 21 61 3c fe 01 01 3d
       0.041981556 0.017741583 0.013740894 0.03149604
0001c0 3b af 7e 3d 54 8c 96 bc 89 4a ab 3c 85 8c db 3c
       0.06217883 -0.01837746 0.020909565 0.026800403
0001d0 e5 8e 0e 3d 42 85 0a 3d d5 14 85 bc 64 69 02 bc
       0.034804244 0.03381849 -0.016245285 -0.007959697
0001e0 87 c6 15 bd 0b ad b9 3c d9 ae 1f 3d 6b 81 7f bc
       -0.036566284 0.022665521 0.038985107 -0.0155948205
0001f0 32 68 02 3d b3 36 15 bc 1f 42 b9 bc e4 e6 86 3c
       0.03183765 -0.00910728 -0.022614537 0.01646752
000200 e8 8d 13 3d 3c 9c 3f 3d e4 d5 d4 bb b4 8e 36 3c
       0.036024004 0.046779856 -0.0064952243 0.0111424215
000210 83 db 01 3d 2f 4f e5 3c 64 07 54 3d d4 ad 1b 3d
       0.031703483 0.02799186 0.05176486 0.038007572
000220 08 ed 24 3d d3 2e e1 3c 8f ac 8c 3a c7 f8 8f bc
       0.040265113 0.027488148 0.0010732579 -0.017574681
000230 db 59 73 bb 23 1e 82 3c cb 77 0d bd 8d e5 07 3d
       -0.0037132415 0.015883511 -0.03453807 0.0331779
000240 db b4 85 3c 8d de d9 3a b9 df fd 3c 8a 4f e4 3c
       0.01632159 0.0016622111 0.030990468 0.027869958
000250 2a ca 1c 3d ea d0 5b 3d f3 b5 0a 3c db 9a 76 3d
       0.038278736 0.053666033 0.008466232 0.060206275
000260 f4 d0 44 3c 27 07 69 3b f1 b2 eb bc dc 5d a5 bc
       0.012012709 0.0035557242 -0.02877185 -0.020186357
000270 70 f4 c7 3b 0b 7a f6 bb 6f cf 0d 3d c5 ea e4 bb
       0.0061021373 -0.007521873 0.034621652 -0.0069859945
000280 f7 08 55 3c f6 81 25 3d 9f 22 12 3d d8 93 55 3d
       0.013002626 0.040407144 0.03567755 0.052142948
000290 c2 1c 4c bc c2 0a c3 3c 68 64 95 bc 71 ab 2b bb
       -0.012458028 0.02380884 -0.018236354 -0.0026194716
0002a0 0f 58 94 bc 22 86 b4 bb d2 ec 59 3a 64 5c 25 3d
       -0.018108396 -0.005509154 0.0008313182 0.040371314
0002b0 67 d0 c8 3c 8f 7d fe 3c 03 6f 7e 3d f9 7b 34 3d
       0.024513436 0.03106573 0.062117588 0.044063542
0002c0 55 0d ed 3c db b9 5f 3b 91 d3 38 bb cc bc f6 3c
       0.028937021 0.0034137878 -0.0028202275 0.030119322
0002d0 d0 cf 07 bb 79 ee 6e ba 74 e3 49 3c 1f 82 5e 3b
       -0.002072323 -0.00091145147 0.012322295 0.003395207
0002e0 73 1c 9c bc 3b 07 3f 3d 93 c0 3b bd 2d 99 bd bc
       -0.019056534 0.046637755 -0.04583795 -0.023144329
0002f0 ba 80 d7 b9 2e bc 7a bc b5 c3 cb 3c 13 a8 15 bb
       -0.00041103904 -0.015303655 0.024873594 -0.0022835776
000300 78 d1 a5 bb 8b 4e cb 3c 11 36 38 3d a2 69 8b 3b
       -0.005060371 0.024817726 0.044973437 0.004254536
000310 00 01 18 3d 12 0e b9 3c 43 ee 1f 3d 8e 65 b1 bc
       0.03711033 0.022589717 0.039045583 -0.02165487
000320 68 9e d2 3c 4a 50 c4 bc 49 d5 11 3d ad 53 1e bc
       0.0257103 -0.023964066 0.035603795 -0.009663505
000330 87 ff 89 3d b6 fb f1 3c 4c 5a d9 3c d2 3c ed 3c
       0.06738191 0.02953897 0.026532315 0.028959665
000340 a5 d6 84 ba 9f ad 97 3c 55 ce 00 3c 6a 3b 7e 3c
       -0.001013477 0.018515406 0.007861693 0.015517095
000350 26 8e df bc c4 ba 0a 3d 82 14 21 3d 69 eb 47 3d
       -0.027289461 0.03386952 0.0393262 0.04880849
000360 2d e1 28 3d 7b ae c6 ba 3b 5e 27 3c 91 f5 54 3d
       0.04123037 -0.00151582 0.010215337 0.051992003
000370 ad a2 b6 bc d9 28 0d 3d e8 94 3e bc 9a 08 c9 bc
       -0.022294367 0.034462783 -0.011632182 -0.024540234
000380 be 24 9e 3c dc 3f d5 bc 11 23 06 3d 2c f7 07 3d
       0.01930463 -0.026031427 0.032748286 0.033194706
000390 b5 a1 3e 3d ba dd 4a 3d fc cd a8 bc 8a cf eb bc
       0.046540935 0.04952786 -0.020606034 -0.028785486
0003a0 fc df 0c 3d 87 c0 42 bb e7 5d 20 bc 0d c7 6b 3c
       0.034393296 -0.0029716806 -0.009788013 0.014390719
0003b0 c9 aa 90 bc a9 22 1d 3d c1 d7 07 3d 0c 55 25 bc
       -0.017659562 0.038363133 0.033164743 -0.010091078
0003c0 1b 19 79 bc 3c 08 79 3c f6 3c 95 3c 61 42 c6 3a
       -0.0152037395 0.015199717 0.018217545 0.0015125984
0003d0 4b ee 52 ba 4e 38 67 3b ab bf d1 bc 0e 6a 09 bd
       -0.00080463727 0.0035281363 -0.02560409 -0.033548407
0003e0 6c 85 84 3c 2b 7b 15 3d cb 41 39 3d 27 4c 72 3c
       0.016176902 0.036494415 0.04522876 0.014788664
0003f0 68 3c 00 bd 87 da 84 3c 26 c9 97 3b 39 cd 44 bc
       -0.031307608 0.016217483 0.004632133 -0.0120118195

layers.0.bias f4 [64]
000000 90 69 19 3c 76 47 c7 bc d5 cc bd 3b b9 52 cb 3c
       0.009363547 -0.024326067 0.00579224 0.024819719
000010 57 ed aa bc 2f 2c ba 3c 04 04 96 bb 25 90 ad 3c
       -0.020865126 0.022726147 -0.0045781154 0.021186898
000020 31 f8 f8 3c 8e 74 92 3c 1f 42 4c bc 99 b8 be 3c
       0.030391784 0.017877843 -0.012466936 0.023281382
000030 4c ec 62 3c 4f 87 f6 3b 7f 9c e7 3c c2 68 f8 3c
       0.013850283 0.0075234543 0.028272865 0.03032339
000040 4d d0 bd bc 8d b0 d4 bb 5a 1d 76 bb d8 50 c1 bb
       -0.023170615 -0.006490773 -0.0037554116 -0.00589953
000050 44 79 49 bd 56 e4 10 3d 0f af 96 bc 57 24 5a 3c
       -0.049187914 0.035374008 -0.018394021 0.013314328
000060 0f 03 06 bb 9e 64 09 bc dd 8d dd 3b dc c9 10 bc
       -0.00204486 -0.008385805 0.006761296 -0.0088371895
000070 4e 11 0b 3d 45 00 3d 3b 6c 46 22 bc 7b 8e 07 3d
       0.03395205 0.0028839272 -0.009904485 0.033094864
000080 e3 3d b6 bb d6 a1 2d 3d 6e 3e 74 3b a6 29 73 bd
       -0.0055615767 0.042390667 0.0037268656 -0.05936589
000090 df d5 85 bc e4 17 74 bc 1a d5 c1 3b ff 88 ee bc
       -0.016337333 -0.014898274 0.0059152963 -0.02911806
0000a0 ff be 06 3d a6 ee 26 3c 7a 5d e2 3c 21 95 ba 3c
       0.03289699 0.010188734 0.027632464 0.022776188
0000b0 70 99 31 bc 5b 58 f1 3c 1f c4 0b bd 61 ef 90 bc
       -0.010839805 0.029461076 -0.034122583 -0.01769227
0000c0 e8 c1 98 3c ff 62 03 bd b6 14 80 bc bc 51 3c 3b
       0.01864715 -0.032076832 -0.015634876 0.002873524
0000d0 37 59 c1 bc d7 22 56 3c b5 d1 ab 3c 1c 85 90 bc
       -0.023602111 0.01306983 0.02097402 -0.017641596
0000e0 ca 84 96 3c 14 d8 3b bb cb 03 ac 3c 06 b3 58 3c
       0.018373866 -0.0028662728 0.020997902 0.013226276
0000f0 1c 88 4d 3c 17 c4 9c bc 89 62 f0 3b 59 b4 c5 3b
       0.012544658 -0.019136472 0.007335965 0.006033462

layers.1.weight f4 [64, 64]
000000 06 ff e1 bc 36 b0 98 bd 6d 73 34 3d 49 8a cb bd
       -0.027587425 -0.074554846 0.04405539 -0.09938485
000010 bc 3d cd 3d 40 39 16 bc 0d 92 7b 3d c4 17 e9 bd
       0.100215405 -0.009168923 0.06141858 -0.11381486
000020 73 a0 b1 3d d5 3f 83 3c f2 b4 6c 3c 56 3f 98 3d
       0.086731814 0.016021648 0.014447438 0.07433955
000030 b3 8a 90 bd 95 4e 98 bd 07 6e 9a 3d fc 53 49 3d
       -0.07057705 -0.07436863 0.07540517 0.04915236
000040 be 98 36 39 bc 17 e3 bd 1e 24 c6 bd d1 fc 2f bd
       0.00017413773 -0.11088511 -0.096748576 -0.042965714
000050 f5 51 56 3d 8d d2 f3 3c 5a 14 82 3d a8 54 7b 3d
       0.052324254 0.029763484 0.06351538 0.06136003
000060 e2 69 af bd 59 bd ea 3d 6f 42 e6 bd f3 fe 96 bd
       -0.085651174 0.114618964 -0.1124314 -0.073728465
000070 02 78 02 be 1c 6b f5 3a f7 2d bb bd 12 d4 68 bc
       -0.12741092 0.0018723938 -0.091396265 -0.014210718
000080 6b 25 f4 3d 45 b9 1a 3d 28 37 81 bd 0b dc ee bc
       0.119211994 0.037774343 -0.06309348 -0.029157659
000090 84 a8 5c bc 32 a9 24 bd a6 7b 7d bd 5c 17 a9 3d
       -0.013467912 -0.04020042 -0.0618855 0.082564086
0000a0 4d 6e 89 3d cf 3a 12 3e 07 fc 56 bc e5 98 10 3c
       0.06710491 0.14280246 -0.013121611 0.008825515
0000b0 de d1 d0 bb 04 dd 00 bd 73 1e ef bd 23 4d 83 bd
       -0.0063726744 -0.031460777 -0.116757296 -0.06411197
0000c0 fb a1 f9 3d 62 d5 8d bd 70 84 cc bc 34 64 e7 bd
       0.121890984 -0.06925465 -0.024965495 -0.11298409
0000d0 82 85 af 3c ae 7f b2 bd 47 53 a3 3d 1e 30 97 bd
       0.021425966 -0.08715759 0.07974868 -0.073822245
0000e0 44 88 ed 3c ca 4e 83 bd f2 f1 98 bc 70 c2 59 bc
       0.02899564 -0.06411512 -0.018670056 -0.013290986
0000f0 34 a5 fa bd 0c 02 b1 3d 07 9c f0 3d ca d0 4f bc
       -0.12238541 0.086429685 0.1174851 -0.012684057
000100 62 c8 f1 bc d5 3d 0d bd 3d 93 81 bd e5 f6 2b bc
       -0.029514495 -0.034482796 -0.063269116 -0.010495876
000110 55 9b 9a bd 84 fe 41 3d 2c 38 bc 3b 68 8b cb bd
       -0.075491585 0.047361866 0.005744001 -0.09938699
000120 bc 07 a3 bd db 41 7c 3c 1b 8f 5c 3d dc b4 b6 bd
       -0.079604596 0.015396561 0.053847414 -0.08921215
000130 33 95 5a bd d8 d8 93 3d 4b 36 25 bc ac 4e 8a 3b
       -0.053364944 0.07219094 -0.010083745 0.004220804
000140 fa 8f d5 bb c6 8f da 3c e6 79 ed bd 56 de 8b 3d
       -0.0065174075 0.026679885 -0.11595516 0.068295166
000150 22 8b 5a 3c f0 e8 80 3d 37 23 a4 3d 65 06 0e bc
       0.013338836 0.06294429 0.08014529 -0.008668517
000160 70 6f e0 bd d4 c6 de bc 66 fb bc bd d6 62 cc 3d
       -0.10958755 -0.027194418 -0.09227638 0.09979789
000170 9a ab b2 3d 27 1d 2d bd 83 c5 10 3e bc aa 8d 3d
       0.08724137 -0.04226413 0.14137845 0.069173306
000180 fb 7e a3 3d 7d d1 82 bc 3b f4 b0 3d b4 d7 e3 3d
       0.07983204 -0.015969032 0.08640333 0.111251265
000190 2f f9 87 bd c1 40 ae 3d d4 e2 d7 3d 43 e5 9c bc
       -0.06639325 0.085084446 0.10541311 -0.01915229
0001a0 8b e3 f0 3d fc 57 ab 3c 9a 52 d0 3d ee 78 b6 bb
       0.117621504 0.020915978 0.10172005 -0.005568615
0001b0 b2 f0 ae 3d 2c 82 91 3d 63 95 5d 3d 44 b5 c0 3d
       0.08542003 0.071049064 0.054097544 0.09409574
0001c0 ff fa c2 bd c8 29 38 3d 76 07 67 3c 79 c8 09 bc
       -0.0952053 0.04496172 0.0141009 -0.008409613
0001d0 38 48 42 bd 4b dd 5a 3d 38 7e 17 3d 6d b9 cb 3c
       -0.047432154 0.053433698 0.036985606 0.024868691
0001e0 0f 5e a6 3d 40 37 e7 3d 47 b9 f5 3c b1 9d ea 3d
       0.08123409 0.11289835 0.029995574 0.114558585
0001f0 23 fc c3 3d 58 36 c8 3d 58 39 4d 3d 0a be b3 bd
       0.09569576 0.0977599 0.050103515 -0.087764814
000200 b5 6a 28 3d e2 fb de bd 8d 90 0c be 29 a6 20 bd
       0.04111739 -0.108878866 -0.13727017 -0.039220963
000210 fb db de bd 4f 33 51 bd be 2d cf bd 18 b5 a6 3d
       -0.10881802 -0.051074322 -0.101161465 0.0814001
000220 e2 98 08 3d 34 49 c5 bc 02 2a 5a 3d 2c ae b4 bd
       0.033348925 -0.024082758 0.053262718 -0.08822283
000230 71 60 d3 3d 94 95 39 bd d6 ca fe bd 6e 49 99 3d
       0.10321129 -0.045308664 -0.12441032 0.07484709
000240 74 52 a9 bd 28 85 d8 bd 7d 21 e8 bd 21 55 78 bd
       -0.0826768 -0.105722725 -0.113345124 -0.06062806
000250 93 18 77 bd 9a eb a6 3c e0 75 8f bc 16 fd 96 3d
       -0.06032617 0.020376015 -0.017512262 0.07372491
000260 e9 5c f8 3d 84 20 da bc 5f c3 02 be ce ac 05 3d
       0.12127096 -0.026626833 -0.1276984 0.032635503
000270 aa a1 df bd 2d 33 5a 3d d8 04 2c bd 62 5d 73 bd
       -0.10919507 0.05327146 -0.041996807 -0.05941523
000280 97 8f 52 3d e7 2c f9 3d 98 e8 af 3c 2c aa c7 bd
       0.05140647 0.121667676 0.021473214 -0.097492546
000290 1e 3b b5 3d c0 8e 70 bc c3 c0 5e 3d de fb 00 bd
       0.08849166 -0.014682472 0.05438305 -0.0314902
0002a0 dd c1 e3 3d ea 3c dc 3d 8b 89 83 3c 80 64 c8 bc
       0.11120961 0.10753806 0.016056797 -0.024461985
0002b0 93 39 a8 bc 1c d7 b5 3d 01 86 70 bd 5b d7 92 bc
       -0.020535266 0.088789195 -0.058721546 -0.017924955
0002c0 43 c4 1f bc cc 1a e1 bd 67 36 2c 3d 22 3d 91 bd
       -0.009751382 -0.10991439 0.04204407 -0.07091738
0002d0 11 98 0a bd 01 5e 16 be 46 91 5f 3d 09 71 c3 bd
       -0.033836428 -0.14684297 0.054581903 -0.09543044
0002e0 69 dd 0f 3d 97 75 eb bd 09 c7 fe bd 24 76 18 bd
       0.035123263 -0.11497038 -0.12440307 -0.037222043
0002f0 47 95 b9 3d a6 16 5f bd f8 c1 fb 3c 22 5d 88 bd
       0.090616755 -0.05446496 0.03073214 -0.06658389
000300 a8 b0 87 bd 1e a4 82 3d bb e7 8e bd e9 4b 48 bc
       -0.066254914 0.06378959 -0.06977793 -0.01222513
000310 ad a4 bc 3d 2a fa 20 3c e1 61 14 bd 23 af 8b bc
       0.09211097 0.009825269 -0.036226157 -0.017051285
000320 45 11 80 3d 9d 9c a5 bc d9 d0 88 3d 60 3c 29 3c
       0.06253294 -0.02021628 0.066804595 0.010329336
000330 90 e4 03 3e e3 63 83 bd 22 b9 dc 3d 20 07 24 bc
       0.12880158 -0.06415536 0.10777499 -0.010011464
000340 0d ce 82 3c 8d f5 6c 3c 24 07 8c 3d e0 f5 03 be
       0.015967393 0.014462841 0.068372995 -0.12886763
000350 95 5f e5 bd 77 24 39 3d cc 92 b0 3d 55 90 0e be
       -0.111998715 0.04520079 0.08621749 -0.13922246
000360 41 1f 7e ba f9 d5 a2 3d 95 73 a2 3d ef 24 18 3d
       -0.0009693988 0.07950968 0.07932202 0.037144598
000370 cd c3 d0 3c a0 af be 3d e3 bd a8 3d 12 43 7a 3d
       0.02548399 0.093108416 0.08239343 0.06109912
000380 99 e0 d1 bd b9 09 90 bb d1 12 cb bd 2b 24 02 3d
       -0.10247917 -0.0043956903 -0.09915698 0.031772774
000390 ea 5f 11 3d 4b d1 7d bd e7 7d d7 3d e7 7d 4f bd
       0.03549186 -0.061967175 0.10522061 -0.05065718
0003a0 42 a9 4c bd 12 73 b7 bd 30 89 bd bc b9 8e 54 3d
       -0.049966104 -0.08957495 -0.023136705 0.051893923
0003b0 4d 70 f8 3d f8 d8 ab 3c 0b 92 7f bd 10 87 b0 3d
       0.12130795 0.020977482 -0.062395137 0.08619511
0003c0 57 94 01 3e a4 97 98 3d 7c 63 30 bd 49 d3 5f 3d
       0.12654243 0.07450798 -0.043063626 0.054644857
0003d0 21 30 8b bd 6a 53 63 bd e6 fc c0 3c 4e f0 11 bd
       -0.06796289 -0.05549947 0.023558091 -0.035629563
0003e0 36 19 f7 bd 33 75 9a bd 76 0f 05 be bf e0 26 3d
       -0.120653555 -0.07541885 -0.12994179 0.04074168
0003f0 2f 40 36 3d 89 0d b8 3a 60 4c a3 bd cf a7 a6 bd
       0.044494804 0.001404212 -0.07973552 -0.08137476

layers.1.bias f4 [64]
000000 be 69 5e bd ce a7 d3 3d 83 20 b7 bd ec 80 10 3d
       -0.054300062 0.103347406 -0.08941748 0.0352792
000010 ee 9e 9a bc a9 a8 44 3c 4c bd c4 bc c9 cd a5 3d
       -0.018874612 0.012003102 -0.024016045 0.08095891
000020 cf 7f bf bd 08 45 62 bd 01 10 ab 3d 9f b5 42 bc
       -0.093505494 -0.055241615 0.08352662 -0.011884122
000030 1f a6 fa 3d 34 96 1f bc 14 41 d4 bd b8 22 2d bc
       0.12238716 -0.009740401 -0.10363975 -0.01056736
000040 89 d2 e5 3c 78 28 b4 3c 6d b2 0b 3e b0 34 47 bd
       0.028054493 0.021991953 0.13642283 -0.04863423
000050 0e 81 ca 3d 6c 2f 83 3d 69 0b 8e bc 29 91 92 bb
       0.098878965 0.064055294 -0.017339425 -0.004472871
000060 1a 5e a9 3c 8e 2e a8 3d 7c 54 50 bd c6 07 a7 3d
       0.020674754 0.082120046 -0.05086182 0.081557795
000070 56 3f 5e bd 1b b6 71 bd f3 a8 db bb 9f 3d c3 3d
       -0.05425962 -0.05901156 -0.00670349 0.09533238
000080 1d 2f e5 bc 80 20 9a bd ba de f2 3d 24 be 4e bb
       -0.027976567 -0.0752573 0.11858888 -0.0031546438
000090 68 15 a2 bd 81 d0 ba 3d eb 18 14 3e a2 64 0e 3d
       -0.07914239 0.091218 0.1446263 0.03476394
0000a0 44 e1 cc 3c f2 3a b0 bd e9 f4 9f bd 3b 4f 89 bd
       0.025009759 -0.08604993 -0.07810385 -0.06704565
0000b0 25 1a 92 3d bd 82 45 bd e6 fe f1 3d af 1e 9f 3d
       0.07133893 -0.048220385 0.11816196 0.07769524
0000c0 eb 05 a0 bd c0 83 e7 3d b3 d4 58 3d 76 94 9b bd
       -0.07813629 0.11304426 0.05293722 -0.07596676
0000d0 6b 27 2a 3d 9c b6 10 bc e5 88 c7 3c c7 09 b4 3d
       0.0415415 -0.0088326 0.024357269 0.087909274
0000e0 47 0f df bd 9a ab 81 bd 14 2b 90 bd 87 c6 76 bd
       -0.10891586 -0.063315585 -0.070394665 -0.060247924
0000f0 85 0a 37 bd fa 59 45 3d 34 9d 1c bd 07 78 93 3d
       -0.044687767 0.04818151 -0.038235858 0.07200628

layers.3.weight f4 [64, 64]
000000 6d 95 97 bd 75 88 a5 3c 3a 46 5b bd 8c 0c f0 3c
       -0.074015476 0.02020667 -0.05353377 0.029302858
000010 9d 9e 83 3d b2 b1 18 bd 51 56 26 be e3 61 ce 3d
       0.064267375 -0.03727884 -0.16243865 0.10077264
000020 84 b5 9a bd f8 6a 25 3d e2 de 5c bc b7 3d b6 3d
       -0.075541526 0.040385216 -0.013480874 0.0889849
000030 49 08 cf bd 7a d9 b2 3d a7 90 52 bd 5c 98 16 be
       -0.10109002 0.087328866 -0.051407482 -0.14706558
000040 b0 9f dc 3d 57 7a 39 3d db 47 52 3d 8e 2e 26 3d
       0.107726455 0.045282688 0.051338058 0.04057174
000050 40 f0 40 bd f3 e9 21 bc f9 d1 b4 3d 15 03 b4 3d
       -0.04710412 -0.009882438 0.088291116 0.0878965
000060 9b 57 13 3d 58 02 4f bd 72 e0 bb 3d 20 2c 17 bd
       0.03597222 -0.050539345 0.09173669 -0.036907315
000070 2b 0d 27 bd 42 fb 27 3d 2a a6 ac bc 50 b9 1e bd
       -0.040784042 0.041011102 -0.021075327 -0.038750947
000080 73 0e 10 3e f9 f4 f0 bd 1d 00 b3 3c 0d 1c cb 3d
       0.14068012 -0.11765475 0.02185064 0.0991746
000090 83 ba 0d bd 3b ac b6 3d 4e 18 b5 3d e6 34 07 3d
       -0.0346017 0.08919569 0.088425264 0.033009432
0000a0 1e 8f 4b 3d 3b cd c3 bd b5 4e 0b 3d 3c 9b 83 bd
       0.049697034 -0.09560629 0.034010608 -0.06426093
0000b0 18 23 52 bb 76 ff c9 bd c6 82 cc 3d f9 46 22 bd
       -0.0032064375 -0.098631784 0.099858806 -0.039618466
0000c0 cd d9 54 bd fc 4e 9b bd 90 02 5e 3d 3b 4a cb 3d
       -0.051965524 -0.075834244 0.054201663 0.09926268
0000d0 17 ee c6 3d a8 e0 2e 3d 77 cf d0 3d d5 6d ba 3d
       0.09713381 0.042694718 0.10195821 0.0910298
0000e0 ee 1d de 3d f7 01 ac 3d 26 52 10 3d 56 ec 00 3e
       0.108455524 0.08398812 0.035234593 0.12590155
0000f0 3f d7 5a 3d 0d cc ee 3d a0 61 bf bd 49 cd ae 3d
       0.05342793 0.11660013 -0.09344792 0.08535249
000100 0a 44 c7 bd 1f ef ae bd 0e e9 0b 3d 66 36 b2 bd
       -0.09729774 -0.085417025 0.034157805 -0.08701782
000110 8c bb cc bd ce 3b af 3d ae e4 00 3d 26 d6 96 bc
       -0.09996709 0.08556329 0.031468086 -0.01841266
000120 af 27 91 3d 50 05 e5 3d 31 09 12 3e 9e ce c5 bc
       0.07087647 0.11182654 0.14261319 -0.024146374
000130 99 f9 90 bd 8b c1 b3 bd 6c c4 8e bd 63 6a ac bc
       -0.07078857 -0.0877715 -0.06971058 -0.021046823
000140 1d e1 08 3d 35 ae 07 3e 34 74 b2 3d 7c 9d 8b bd
       0.03341781 0.13250048 0.0871357 -0.06817147
000150 d5 1e 80 3d b4 9d d8 3c 47 1e b0 bd 9f 2d 78 bd
       0.06255881 0.026442386 -0.08599525 -0.060590383
000160 8d 2b 95 bc 56 51 2a 3d 63 cc fe 3d d6 48 58 bd
       -0.018209243 0.041581474 0.124413274 -0.052803837
000170 48 0a 37 bc c3 dd bf 3d 68 44 61 3d 7a 82 f8 bd
       -0.011171885 0.093684696 0.054996878 -0.121342614
000180 d8 ad 84 bd 47 f7 e0 3d 00 51 8d bd 56 f8 e2 bd
       -0.064784706 0.109846644 -0.06900215 -0.110825226
000190 92 bc fd bd 3b e5 ba 3d c8 d2 88 3c 6a 6e 90 bd
       -0.123894826 0.091257535 0.01670207 -0.0705231
0001a0 eb e5 a2 bd 06 8b ca 3c 7c 47 6c bd 41 e6 b5 3d
       -0.079540096 0.024724495 -0.05768536 0.08881808
0001b0 d7 58 21 be 4a 50 53 3d b8 fa 18 3a ec 85 72 3d
       -0.15756546 0.05159024 0.00058357 0.05920975
0001c0 19 75 b4 3d a6 24 3f 3d 15 7c aa bd 8c 25 6b 3d
       0.08811397 0.04666581 -0.08324448 0.057408854
0001d0 61 13 a1 bd ae da 01 bd 9e e6 13 3e a1 c3 de 3c
       -0.07865024 -0.03170269 0.14443442 0.027192893
0001e0 a8 d1 ae 3d a6 18 d8 bd bf 21 9b 3d e9 6f 8e bd
       0.085360825 -0.10551576 0.07574796 -0.06954939
0001f0 6a eb 0d bb ba 1b bb bd 41 f0 e1 3c ca 32 bb 3d
       -0.002165521 -0.09136148 0.027580382 0.091405466
000200 fb 95 2d 3d 00 3d cc 3d dd 63 03 bb 14 3b 91 bd
       0.04237936 0.09972572 -0.0020048537 -0.070913464
000210 b9 98 de bc 0b 1b bf bd 22 f9 97 3d 37 6c d6 bd
       -0.027172433 -0.0933133 0.07420565 -0.10469859
000220 b8 73 63 3d ec 91 a8 3d 38 b4 4d 3b 5f 87 a0 3d
       0.05553028 0.082309574 0.0031387936 0.0783832
000230 69 9d 14 3d ba 66 49 3d ba 81 8e 3d 7f a8 5f 3d
       0.03628293 0.049170233 0.06958337 0.05460405
000240 cf 82 c9 bd d0 8e cd bd 1b c1 00 bc 59 fe 83 3d
       -0.09839403 -0.10037005 -0.00785854 0.06444997
000250 c8 bd 83 bc 60 8b 01 bc 89 c0 31 bb 38 98 6f bd
       -0.016081706 -0.007906765 -0.0027122817 -0.058494776
000260 27 29 9a 3d 3d 94 77 3d 26 7d 95 3d 0c 55 be 3c
       0.075273804 0.060444105 0.07299261 0.023233913
000270 01 db 7c 3d ac 9e 67 bd 2d 9e c8 3b b9 a4 8c bd
       0.061732296 -0.056547806 0.0061223716 -0.06867356
000280 95 01 9a bd 99 67 bc 3c 39 0f b0 3c e5 03 aa bc
       -0.07519833 0.022998618 0.021491634 -0.02075381
000290 39 14 aa bd 6d b0 4f 3d 00 fb 90 3d e0 7e f5 bc
       -0.083046384 0.050705362 0.070791245 -0.029967725
0002a0 8f 66 99 bd 59 32 d1 bd 38 dc c2 bc 82 6d 03 bd
       -0.074902646 -0.10214681 -0.02378665 -0.032086857
0002b0 30 78 a8 bd d9 98 b9 3b ce dd 89 3d d5 ea eb 3c
       -0.08226049 0.005663973 0.06731759 0.0287985
0002c0 42 bd b5 3d 9b 27 af bd 1e f2 8e bd af 16 18 be
       0.08873989 -0.08552476 -0.06979774 -0.14852403
0002d0 12 d6 e2 bd 37 74 66 3c fd 55 d1 bb 81 e5 36 3d
       -0.11075987 0.014065794 -0.0063884244 0.044652466
0002e0 cf 5e 02 3d a6 21 8f bc 32 99 e4 bd 86 a6 ca 3b
       0.031828698 -0.0174721 -0.11162032 0.006184402
0002f0 d5 2e a3 bd 29 14 04 be 64 7d b0 3d 0f 92 20 bd
       -0.07967917 -0.12898315 0.08617666 -0.039201792
000300 8d a3 e9 3c e5 ab b8 bd c6 eb 9f bd d2 40 4e 3d
       0.02852037 -0.09017161 -0.07808642 0.050354786
000310 4c a8 e5 bd f6 4f d9 bd d1 82 40 bd d2 9f a1 bd
       -0.11213741 -0.106109545 -0.046999756 -0.078918114
000320 a4 4c 09 3c e5 a4 a9 bd 19 91 a1 bd ce a3 0c 3d
       0.008380089 -0.08283404 -0.07889003 0.034335904
000330 df a7 dc bd c0 0a 42 bc 69 cd d8 bd 76 3c 9a 3d
       -0.10774206 -0.011843383 -0.10586054 0.07531063
000340 cc 2f 8d bc 04 d1 b5 3d 11 b6 e7 bd 60 ad c8 bd
       -0.017234705 0.08877757 -0.11314023 -0.09798694
000350 e6 17 08 3c a7 b1 a9 bd fe 43 cf bb f4 28 9e bd
       0.008306479 -0.082858376 -0.006325244 -0.07722655
000360 1e 7a ec 3d 32 46 73 3d 61 a0 b1 3d cc 91 1c bd
       0.115467295 0.059393115 0.08673168 -0.03822498
000370 22 27 04 be 46 de be bd f9 f8 fb 3d c2 f9 d6 3d
       -0.12905553 -0.09319739 0.12303347 0.10496856
000380 dc 1c cb 3d e1 fb d7 bd 62 93 55 bd b5 1c 26 bd
       0.09917614 -0.10546089 -0.05214251 -0.04055472
000390 3c 23 da bd 55 a0 60 bd 7e bd f5 bd d9 06 36 bc
       -0.10651252 -0.054840405 -0.119990334 -0.011110031
0003a0 69 ba af bd 0d 9e 1e bd 82 b0 0d 3d 36 f2 d8 3d
       -0.08580477 -0.038724948 0.03459216 0.10593073
0003b0 3d 7d 20 bd 90 79 f5 bd ae 51 78 bd 71 58 9e bd
       -0.039181937 -0.11986077 -0.06062477 -0.077317126
0003c0 64 08 ab 3d 6f cc 1e bc 34 fd 2b 3d 6e fe 8d 3d
       0.0835121 -0.009692295 0.04198952 0.06933294
0003d0 06 70 7c bd 1f 37 8e bc e6 cc 5c bd 25 19 9c 3d
       -0.06163027 -0.017360268 -0.053906344 0.076219834
0003e0 0c 4f e8 bd f1 f5 11 bd b6 a7 4f 3d 7d 72 11 bd
       -0.11343202 -0.03563494 0.05069705 -0.035509575
0003f0 40 68 7b bd d6 1d db 3d 8b 6e a6 bd 5c 89 65 bd
       -0.061378717 0.1069905 -0.08126553 -0.0560392

layers.3.bias f4 [64]
000000 8c 00 b6 bd 1c ab 18 bb f7 fe 83 bc 4f ad e8 3d
       -0.08886823 -0.0023295349 -0.016112788 0.11361181
000010 d8 80 5d 3d 2b 41 30 3d 4b 17 be 3c 03 b2 eb 3b
       0.054077953 0.0430309 0.023204466 0.0071928515
000020 f5 a6 94 3c d7 83 5b bd bb 6d 48 3d 92 8a b2 3d
       0.018146018 -0.05359253 0.048932772 0.087178364
000030 0f aa a7 3d 5e 7d 82 3d 29 3a e2 bd a3 0e 4e 3d
       0.08186733 0.06371568 -0.110462494 0.050306927
000040 ac 41 6f 3b 59 b9 80 bc 03 8a 89 3d 5b 1c 4e bd
       0.003650765 -0.01571338 0.06715777 -0.05032001
000050 a0 6e be 3d 3c 54 d6 3d e0 3e 53 3d 5c 56 13 3e
       0.09298444 0.10465285 0.051573634 0.14388412
000060 7e 24 77 bd b6 0f c1 bd 72 8d 02 3e c5 a5 85 3d
       -0.060337536 -0.09426825 0.1274927 0.06525759
000070 49 21 b0 3d 33 3c 82 bd ac 29 a9 3d b2 58 83 bd
       0.08600099 -0.06359138 0.082599014 -0.06413402
000080 02 49 cf bb 2f 76 dd 3d fd 3b 05 bd c4 72 91 bd
       -0.006325842 0.10813557 -0.032527912 -0.07101968
000090 ef 68 cb bd c8 84 33 bc 90 61 e7 bd e1 bc 93 3b
       -0.09932124 -0.0109569505 -0.112979054 0.0045086
0000a0 88 e0 6f bd 32 a5 b8 3d 70 df 0e bd 05 d9 c3 3d
       -0.05856374 0.090158835 -0.034881055 0.095628776
0000b0 c9 03 e0 3d 29 da a6 bd 97 ec 05 3e 44 12 1b 3c
       0.10938222 -0.081470795 0.13078533 0.009464804
0000c0 f1 b7 ee 3d a6 31 f3 3d 15 aa 57 bb c4 9d d0 bd
       0.11656178 0.11874704 -0.0032907773 -0.101863414
0000d0 96 48 c7 3d 8a 1d 06 bc d7 a6 2f bb 4d 45 c0 bd
       0.097306415 -0.008185754 -0.0026802325 -0.09388218
0000e0 a3 3d 3b 3d 18 e5 a7 3d 4e db 23 3d 84 65 d5 bd
       0.04571308 0.08197993 0.040004067 -0.10419753
0000f0 f1 ee 37 bc 7d 3a 47 3b 23 08 95 3d 7b 7d 9f 3c
       -0.011226402 0.0030399852 0.072769426 0.019469013

layers.5.weight f4 [12, 64]
000000 a5 ac 0c bd c7 eb 47 bd 58 a2 b4 bd 76 94 86 bd
       -0.034344334 -0.04880884 -0.08820027 -0.065712854
000010 76 37 eb bd d6 6d 03 be 8b 87 67 bd 00 7c ae bb
       -0.11485188 -0.12834868 -0.05652575 -0.0053248405
000020 7f d8 d3 3d 37 b1 4f bd 14 1b 9e 3d 2a bc 03 bd
       0.10344028 -0.050706115 0.077200085 -0.03216187
000030 2d c0 e9 bc 2f f0 58 bc 52 0f 9c bd c6 10 d0 bc
       -0.02853402 -0.013240858 -0.076201096 -0.025398623
000040 0b 2f 35 3d d1 a6 bd 3d e9 d8 67 3d cb 92 4e bd
       0.044234317 0.09260333 0.056603346 -0.05043296
000050 3e 4d 1c bd 0a 4d be bd 6d f2 4e b9 b7 22 11 be
       -0.0381596 -0.09292038 -0.00019736002 -0.14173399
000060 5b 00 5b 3d 55 d0 ee bc 86 a8 bb 3d ba 38 d5 3c
       0.053467136 -0.029152075 0.09163003 0.026028026
000070 dd 3e cf bd 20 1f d9 bd 1a cc 58 3d ff ca 22 3d
       -0.10119412 -0.1060164 0.05292902 0.039744373
000080 cb 81 c5 3d ca b9 e9 bd 31 6b ab 3d a9 df c9 bd
       0.09643897 -0.114123896 0.083700545 -0.09857113
000090 24 83 2f 3d 3e 74 98 bd 33 cd e7 bd 4c 53 96 bc
       0.042849675 -0.074440464 -0.113184355 -0.018350266
0000a0 df 45 3c bd d9 4f 0c 3d 89 2c 22 bd f0 b2 b3 3d
       -0.04596507 0.034255836 -0.039593253 0.08774364
0000b0 16 42 98 bd fe ff 5e bd 04 e4 23 3d 3e ab f7 3b
       -0.0743448 -0.054443352 0.040012375 0.0075582555
0000c0 95 26 9f bd 75 f4 d8 3c 40 54 8b 3d 01 bf 14 be
       -0.07771031 0.026483754 0.06803179 -0.14525987
0000d0 f4 3f 83 bd 7e 83 a6 bc 86 b0 d9 3d 6f d2 63 bd
       -0.064086825 -0.020326372 0.10629372 -0.055620607
0000e0 13 75 ab 3d 17 16 5b bc 89 52 b6 3d 1a 1b c3 3d
       0.083719395 -0.013371966 0.08902461 0.095266536
0000f0 60 cd e7 bc 31 0e e4 bd ce 04 6a bd f7 a7 9e bd
       -0.028296173 -0.11135519 -0.05713349 -0.077468805
000100 a2 35 65 bd 5f 6a 51 bc 62 5f a0 3d 5e ed 84 3c
       -0.05595935 -0.0127817085 0.07830693 0.016226467
000110 46 92 b8 3d 4b f1 a6 bd d9 2b e9 3d 07 21 3e bd
       0.090122744 -0.08151492 0.113853164 -0.046418216
000120 95 35 fe 3d 5a 5f 75 bb 2e d1 d8 bd c2 bc 80 bd
       0.12412564 -0.0037440867 -0.10586773 -0.06286003
000130 df 28 e0 3d 9b 9a ca 3d 97 92 59 bd ee ba e0 bd
       0.109452955 0.0989277 -0.053118315 -0.10973154
000140 e7 01 2b 3b 9c 7a 79 bd 0a 3d 4a bb 65 d0 86 3d
       0.0026093663 -0.060907945 -0.0030859136 0.06582717
000150 d8 2a 83 3d 27 a8 f4 3c 43 3d bc 3b 05 78 f8 bb
       0.06404656 0.029865338 0.0057446077 -0.007582667
000160 46 a7 ea bd 22 78 0b bc 91 94 69 3c bd 7d ee bd
       -0.11457686 -0.008512529 0.014256612 -0.116450764
000170 b6 ef ad bd ac e7 40 3d fb 63 99 3d 41 93 b5 bd
       -0.08492987 0.04709594 0.07489773 -0.08865977
000180 dd 20 34 3d 74 90 c4 3d ef a8 be bc 9e 75 99 bd
       0.043976653 0.09597865 -0.023273913 -0.07493137
000190 15 7c c5 3d 28 d7 79 3d 1e 8d b0 3d f5 14 df bd
       0.096428074 0.060996205 0.08620666 -0.10892669
0001a0 57 3e cb 3c 54 7a f0 bd a0 93 9c 3d 1d dd 8a 3d
       0.02481 -0.11742082 0.07645345 0.06780455
0001b0 08 7e 0d 3c fc d0 6b 3d cc 99 ca 3d f9 fc 43 bd
       0.008636005 0.05757235 0.09892616 -0.047848675
0001c0 46 0b bf 3d f7 0e e4 3a 52 8a 10 3d ba b7 ff 3d
       0.09328322 0.0017399479 0.035288163 0.12486215
0001d0 a3 1f 0a bc 15 65 cc bd 67 54 b1 3c 02 11 a9 bd
       -0.008430394 -0.09980217 0.021646691 -0.08255197
0001e0 b3 16 34 3c 86 42 c3 bc 55 af 9d bd 50 fa ad 3d
       0.01099174 -0.023835432 -0.076994576 0.08495009
0001f0 4e 26 bf 3d b1 f7 f3 bd f7 85 a1 3d 0a 25 fa bc
       0.09333478 -0.11912478 0.0788688 -0.03053524
000200 84 3c ba 3d 66 50 30 3d 3f bc 61 bd 27 ad 1e 3d
       0.09093574 0.043045424 -0.055111166 0.03873935
000210 18 c1 9f 3d 6a d7 0d bd 72 c8 bf 3d eb ce 2f 3d
       0.078005016 -0.034629263 0.09364404 0.04292194
000220 bd fe 0d be f5 a9 24 3d d1 3b 0c be 3d 4e 20 3d
       -0.13866706 0.040201146 -0.13694693 0.039137114
000230 38 b4 12 3d 36 5d 72 3b 93 04 ef bc 9a 5f 3a 3d
       0.0358164 0.0036981828 -0.029176986 0.04550133
000240 cd 87 5d bd b8 49 25 3c 8f 58 38 3d 28 89 59 3d
       -0.054084588 0.010088377 0.04500633 0.053109318
000250 7b 93 b2 bc 8b 48 3f 3d 9f db a6 3d 82 a5 04 3e
       -0.02179884 0.04670004 0.08147358 0.12953761
000260 dc ce bb 3d 2d a5 9b 3d 48 53 13 be bf 6f fa bd
       0.09170315 0.07599864 -0.14387238 -0.12228345
000270 03 18 67 3d b0 d1 ee 3d 05 dc c0 3d ab 60 79 bd
       0.056419384 0.116610885 0.094169654 -0.060883205
000280 15 84 1d bc b1 7c 95 3d 00 8e 8c bd 45 07 7d bd
       -0.00961401 0.072991736 -0.06863022 -0.06177451
000290 77 0f 41 bd 08 ad 81 bd fd b9 27 bd ed 9e d8 3c
       -0.04713389 -0.06331831 -0.040948857 0.02644297
0002a0 52 f0 a8 3d 49 ef 87 3d 29 70 38 3c fb 8c b1 bc
       0.082489625 0.06637437 0.01125721 -0.02167367
0002b0 e8 80 c2 3d 8a bd aa 3c 00 e5 96 3d 12 b8 da bd
       0.09497243 0.020842332 0.07367897 -0.1067964
0002c0 1d 88 d4 bd 62 af f3 bd 5e b7 59 bd 06 ac 0c 3c
       -0.10377524 -0.11898686 -0.05315339 0.008585935
0002d0 28 15 bd 3d 51 9e b8 3d de 1b 73 bd 27 60 b1 3d
       0.09232551 0.090145715 -0.059352748 0.08660918
0002e0 36 ea 0d be 10 08 cc bc e7 63 da bd 0c 0c c3 3c
       -0.13858876 -0.024906188 -0.10663586 0.023809455
0002f0 96 10 9c 3d 27 2a 7e bd f7 11 2d bd 44 59 fe bd
       0.07620351 -0.06205192 -0.04225346 -0.1241937
000300 45 84 ec bd 79 99 08 be 4c b5 c0 bd a2 84 6a 3c
       -0.11548666 -0.13339795 -0.0940958 0.014313849
000310 68 15 b0 bd 6c 10 4e 3b 8c 4a cd 3d ee d6 9d 3d
       -0.08597833 0.0031442894 0.10023984 0.0770701
000320 f3 a1 d7 3d 3d be ba bc 4f 7e 1e 3d 4b 48 65 3d
       0.10528936 -0.02279579 0.038694676 0.055977147
000330 cd dd 8f bc 7e 5c e6 bd ce aa f6 3a 1a 57 df 3d
       -0.017561818 -0.1124811 0.0018819214 0.10905285
000340 51 d9 f3 3d 67 42 c6 3c 3d ac d2 bc b2 62 f2 bd
       0.11906684 0.024201585 -0.025716895 -0.11835231
000350 c0 44 6a bd 60 7e 9c 3d 1d 03 c7 3c f8 5f 74 3d
       -0.05719447 0.076412916 0.024293477 0.059661835
000360 77 c4 16 bc 64 92 68 3d 1b 69 b5 3d 4b 03 a4 3d
       -0.009202114 0.056780234 0.08857938 0.080084406
000370 2f ec a7 bc d6 16 67 3d 29 80 df 3d 84 b5 67 3d
       -0.020498363 0.056418262 0.109131165 0.05656959
000380 74 1a 55 bd 6f 85 02 3e 21 c8 ad 3d 55 11 5d bd
       -0.05202718 0.12746213 0.08485437 -0.053971607
000390 85 c4 cd 3d 1f 51 6c 3d 25 9e d4 3d 00 8d a4 bc
       0.10047249 0.05769455 0.10381726 -0.020086765
0003a0 70 98 dd bd 60 24 13 bd 4c 21 05 3e c3 f7 9f bc
       -0.10820091 -0.03592336 0.13000983 -0.019527322
0003b0 d4 3b a9 3d 2e 40 6c 3d 78 3c 74 bb 56 09 61 3d
       0.082633644 0.057678394 -0.0037267487 0.054940544
0003c0 2b 1e ca 3d f9 b4 c7 3d eb e7 9f bd b3 a6 81 bd
       0.09869035 0.09751315 -0.07807907 -0.063306235
0003d0 ee ef 2f 3d 7b 03 92 bd 42 e2 bb bd d0 7a 8c 3d
       0.042953424 -0.0712957 -0.09174015 0.06859362
0003e0 fe 99 e0 bc 32 09 60 bc 4f 4d 4a 3d ec e9 f6 bd
       -0.02741718 -0.013674067 0.049390133 -0.12056336
0003f0 0d 19 18 3b 1f 79 53 bd 79 40 b6 bd b6 41 52 3d
       0.002320829 -0.051629182 -0.08899016 0.051332198

layers.5.bias f4 [12]
000000 a3 82 3c bb 94 db d0 3d fd 75 78 3d 10 92 db 3d
       -0.002876439 0.10198131 0.060659397 0.107212186
000010 18 7c b1 3d 78 4f a2 3d 2a 50 a2 3d e1 b8 94 3c
       0.08666247 0.07925314 0.07925446 0.018154563
000020 e6 17 be 3d 26 f1 73 bd 4f 52 1f 3d ad d4 0c be
       0.09281902 -0.05955615 0.038896855 -0.13753004

layers.0.weight f4 [64, 748]
000000 59 82 e0 3c 7b db 58 3d 04 82 85 3d fb 21 1b 3c
       0.027405905 0.052943688 0.06518939 0.009468551
000010 fa f2 b6 3d 79 47 16 3d cb c6 85 3b 39 5e 50 3d
       0.08933063 0.036689255 0.004082536 0.050871108
000020 7d 47 0b 3d ed a1 b1 3c 15 3e ae 3b 1e 1a 92 3d
       0.034003723 0.021683658 0.0053174593 0.07133888
000030 7f 2e 87 3d e0 c6 85 bb 80 dd d9 3c fe 60 f6 bb
       0.06600665 -0.0040825456 0.026594877 -0.0075188866
000040 e5 8b 77 bc 5f 69 2e 3d 69 46 7d 3d 6d 8c 0d 3d
       -0.015109037 0.04258096 0.061834726 0.03455775
000050 18 11 66 3d f9 8a 3e 3d 2a 29 22 3d ef ba 1a 3c
       0.056168646 0.046519253 0.03959004 0.0094439825
000060 46 c2 84 3d d8 95 12 bd b7 8c 8d 3d 4a 5f a1 3d
       0.06482367 -0.035787433 0.06911605 0.07879503
000070 82 34 f6 bb b9 1d 93 3d 21 3f 24 3d 6c cb f0 3c
       -0.0075135836 0.071834035 0.040099267 0.029393874
000080 56 00 c6 3c 77 32 76 3d 20 c4 65 3d f0 3b 8c 3c
       0.024170082 0.06010672 0.056095243 0.017118424
000090 5e d5 0e 3c 4d 2d a3 bc 9e f9 35 bd 97 0a d2 3c
       0.008717863 -0.019919062 -0.044427507 0.025639815
0000a0 6e 07 5d 3c 50 cf 84 3d ae ff 93 3d 86 4c 4c 3d
       0.013490541 0.06484854 0.072265014 0.049877666
0000b0 da 12 1b 3d 2a 3d f0 3c fc 64 21 3d 15 a0 f1 3b
       0.037859775 0.02932604 0.039402947 0.0073738196
0000c0 6f cb 5a 3d 3c 99 fe 3c e0 1e d1 bc 8e da 86 3d
       0.053416666 0.031078927 -0.025527418 0.06584655
0000d0 bd 54 42 3b 2a 11 36 3d 60 c0 54 3d 99 86 cd 3d
       0.0029652559 0.044449963 0.051941276 0.10035438
0000e0 e5 ed 75 3d aa e6 cf 3c 32 cc 74 3d d0 36 fd 3c
       0.060041327 0.025378544 0.05976505 0.030909926
0000f0 3b 57 b8 3b ec e2 2c 3c 58 0b 15 bb 73 ed a1 3c
       0.005625633 0.010552149 -0.0022742357 0.019766545
000100 65 8b 14 3d 11 ae 00 3d 40 49 15 3d 70 6b d5 3c
       0.03626575 0.031416003 0.03644681 0.026052207
000110 c5 a2 82 3c ff 69 3a 3c 9d 68 fd 3c 62 c6 e1 3c
       0.015946755 0.0113778105 0.030933673 0.027560417
000120 5b 86 93 bc 39 da 84 3d e5 d3 f1 3c 2a 22 47 3d
       -0.018008402 0.06486935 0.029519984 0.048616566
000130 e7 ea b7 3d 40 bd aa 3d ce c4 80 3d 12 1f a6 3d
       0.08980351 0.08336878 0.062875375 0.08111395
000140 3d 1c 7f 3d 1c 13 33 3d cc 61 00 bd fc 74 30 3d
       0.06228279 0.043719396 -0.031343266 0.043080315
000150 9e 3e 31 3c 19 e1 f2 3c 8c 01 99 3d 36 13 c9 3c
       0.010818152 0.02964835 0.07470998 0.024545293
000160 87 dc 56 3d 20 38 44 3c 9f 3c ef 3c 1b f6 88 3c
       0.052456405 0.011976272 0.029203711 0.016718915
000170 a3 3a 9e 3d 1a ce 02 3d c0 ec 98 3b 64 a2 a7 3d
       0.07726028 0.031934835 0.0046668947 0.081852704
000180 63 84 aa 3d f3 d2 c8 3d cf 8d e0 3d 05 16 01 3e
       0.08326032 0.0980586 0.10964548 0.12606056
000190 5c 73 da 3d 8a d3 11 3d f2 28 b0 3d e9 3c 7b 3d
       0.10666534 0.03560213 0.0860156 0.061337385
0001a0 a8 9a c0 ba 2d 7b 3e 3d a7 57 06 3c cd 74 35 bb
       -0.0014694529 0.04650419 0.008199609 -0.0027688027
0001b0 a0 72 1c 3d 26 16 d9 3c f1 d9 43 3d bc d4 40 bb
       0.038195252 0.026499819 0.047815267 -0.0029423675
0001c0 a0 00 19 3d 8d bd 21 3b 61 b3 c2 3c 08 45 22 3d
       0.03735411 0.0024679631 0.023767175 0.039616615
0001d0 88 29 38 3d 95 7c ac 3d dd 30 85 3d c5 d2 2a 3d
       0.044961482 0.084222 0.065034606 0.04170491
0001e0 3a 2a dd 3d e4 bf 05 3e 90 e4 87 3d 21 95 43 3d
       0.1079907 0.13061482 0.06635392 0.047749642
0001f0 5f 23 8d 3d 0e 62 54 3d 87 1c 8e bc 77 f0 38 3d
       0.06891512 0.051851325 -0.017347587 0.0451512
000200 2a 65 e0 3c c5 72 d0 3c 96 4f 8d 3d f2 03 2a 3d
       0.027391989 0.025445351 0.068999454 0.04150767
000210 94 92 99 3c c0 35 a3 3c bf 81 53 3d 1a 74 ea 3c
       0.018746652 0.019923091 0.051637407 0.028619815
000220 8d fe a9 3d e2 b0 89 3c 9f 10 b4 3d 44 75 8f 3d
       0.08300505 0.016807977 0.08792233 0.070047885
000230 ee d1 13 3d 7e 84 17 3d 9f d8 87 3d ed f8 d5 3d
       0.036088876 0.03699159 0.06633114 0.104478694
000240 58 be b7 3c 28 9d 43 bb f0 b1 c1 3d e4 ba 06 3d
       0.02242963 -0.002984831 0.09457767 0.032893077
000250 6a a2 18 3c 33 c5 64 3d 2f b4 40 3d 92 e8 d3 3c
       0.009316066 0.055852126 0.047046836 0.025867734
000260 1f ef 8a 3d 32 ad b2 3c f5 a9 29 3d 51 42 14 3d
       0.0678389 0.021811102 0.04142185 0.036196057
000270 f9 5d 67 ba 69 30 b8 bc aa 78 f0 3c ec 49 cd 3c
       -0.00088259537 -0.022484021 0.029354412 0.025059663
000280 9a 56 33 3d ff 4d 9c 3d 48 6a 76 3d c4 28 77 3c
       0.04378376 0.07632064 0.06015995 0.015085403
000290 0d dc 7b 3d 4c 75 7c 3d 47 99 15 3d 32 da fe 3c
       0.061489154 0.0616353 0.03652313 0.031109903
0002a0 dd 8d 52 3d e7 d5 12 3d 5d 16 79 3c 10 6a 1e 3d
       0.051404823 0.035848524 0.015203086 0.038675368
0002b0 9e a4 d0 bb 41 d6 e1 bc cb ea 8f 3b fb 31 16 bb
       -0.00636728 -0.027567985 0.004392003 -0.0022917974
0002c0 9b f8 2f 3d 78 d7 bb 3c 23 7b b5 3c d1 b9 66 3b
       0.042961698 0.022929892 0.022153443 0.003520597
0002d0 b1 8c 21 3d 02 7b ee 3c 7f ea 5c 3d 75 b6 ec 3d
       0.039440814 0.02911139 0.05393457 0.115582384
0002e0 da 5d a7 3d 5d 8b 76 3d aa 88 3d 3d b0 8f f7 3d
       0.08172198 0.0601915 0.04627291 0.12087953
0002f0 bc 70 12 3d ea 10 23 3d d1 ad 48 3d bf 6c f0 3c
       0.035752043 0.039811052 0.04899389 0.02934873
000300 c1 fd 2c 3b 3e c5 84 3d bc a5 e8 3b 21 57 28 3d
       0.0026396366 0.064829335 0.007099835 0.041098718
000310 ca 46 56 3d 5f 31 13 3d 7e 89 cd 3c c3 af 7c 3c
       0.052313603 0.035935756 0.025089975 0.015422764
000320 3f bf 62 3a b5 fd b4 3b b2 c0 d3 3c 91 e4 b2 3b
       0.0008649714 0.0055234083 0.02584872 0.005459376
000330 14 22 23 3d af 0e a8 3d 18 a8 95 3d f4 da 90 3d
       0.03982742 0.08205926 0.07307452 0.07073012
000340 1c d3 91 3d 81 a5 11 3e 2f 3d a2 3d c5 85 12 3e
       0.07120344 0.14223291 0.07921826 0.14308842
000350 84 a1 f8 3d eb bf 42 3d 10 16 21 3c 21 1a 91 3d
       0.12140182 0.04754631 0.00983192 0.07085062
000360 ce ce 73 bb 41 ae 50 bc 3a db 80 3d 0e a3 a8 3c
       -0.0037202123 -0.012736858 0.06291814 0.020585563
000370 6d 77 6d 3d a4 a2 e5 3c 98 15 3c 3d 7f 9e fe 3c
       0.05797522 0.028031655 0.04591903 0.031081436
000380 5c 46 fa 3d 58 54 2c 3d e6 e5 85 3d 92 d3 49 3d
       0.12220451 0.042072624 0.0653799 0.049274035
000390 d5 24 82 3d e3 2c d2 3d 4f ea 5e 3d 70 73 d6 3d
       0.063546814 0.10262468 0.054422673 0.10471237
0003a0 c5 d1 80 3d b7 9a 14 3e 93 b7 b3 3d a0 df bf 3d
       0.0629001 0.14512144 0.087752484 0.09368825
0003b0 8d a2 76 3d ee be aa 3d d6 72 40 3d 91 50 ea 3c
       0.060213614 0.08337198 0.046984516 0.02860287
0003c0 2f 19 90 3d 98 29 90 3d 9f 69 88 3d 59 f9 87 3d
       0.070360534 0.070391834 0.066607706 0.06639356
0003d0 d9 79 4c bc 63 8a 91 bc 4b 94 44 3d 09 5c d6 3c
       -0.012480223 -0.017766183 0.047992986 0.026166933
0003e0 a1 c9 a6 3d 6a c6 dc 3d 88 f4 f7 3d c4 76 9f 3d
       0.081439264 0.10780032 0.121071875 0.077863246
0003f0 26 fe 61 3d 1f 49 76 3d c1 da a6 3d 42 18 e6 3d
       0.055174015 0.060128327 0.08147193 0.112350956

layers.0.bias f4 [64]
000000 bb b1 d7 3d f2 47 82 3d 60 e4 77 3d dd fc 24 3c
       0.10531946 0.06361379 0.06052053 0.010070053
000010 f3 3e 8c bd 3a 15 f3 bd d6 1d c5 bd 38 cc 07 3e
       -0.06847944 -0.11869283 -0.096248314 0.13261497
000020 b8 69 09 3e 79 e6 4c 3d 02 92 27 bd e6 a9 9c 3d
       0.13419235 0.050024483 -0.04091073 0.07649593
000030 af 72 75 bd 1a ef a3 3d 6d f5 54 bc 12 73 d9 3b
       -0.059923824 0.080045894 -0.012997967 0.006636032
000040 5c 0a 84 bd dc ff 88 bd 4d 71 9e bd 2d a6 e8 3c
       -0.064472884 -0.06689426 -0.07736454 0.028399551
000050 17 c0 25 3d ce 25 e5 3d a8 34 fb 3c ec cb 37 3d
       0.040466394 0.11188851 0.030664757 0.04487221
000060 40 85 b7 3c ac cf 80 bd 82 cb 31 3c 94 d7 d8 bd
       0.022402406 -0.0628961 0.010851743 -0.10587993
000070 40 f5 d5 3d c2 22 97 bd c5 bd 19 3d a6 d8 d0 3c
       0.10447168 -0.073796764 0.037534494 0.025493931
000080 3b f2 12 bd df 55 eb 3d d6 30 83 3c 8f 57 c3 bd
       -0.03587554 0.11490988 0.016014498 -0.09538185
000090 aa 9d 5b 3d 17 3c 03 bd 36 22 e2 bb aa 5c a7 bd
       0.053617157 -0.032039728 -0.006901051 -0.08171971
0000a0 e0 fe 10 bd 89 72 ab 3d e2 5f 66 3c 98 46 2a 3b
       -0.035399318 0.08371455 0.014060946 0.0025982019
0000b0 63 9d 53 3c 75 cc c0 bd 80 83 fc 3c f6 f7 94 3d
       0.012915942 -0.09413997 0.030824423 0.07273857
0000c0 ad 41 e3 bc fe 47 d7 3d 4f 08 83 bd bf 63 96 bd
       -0.027741278 0.10511778 -0.06398069 -0.07343244
0000d0 43 93 91 3d 0e cf a6 3c 3b 0c aa bd 66 43 6f 3d
       0.07108166 0.020362403 -0.08303114 0.058413886
0000e0 a9 9f 98 3d f9 24 47 3d 3a cb 58 3b 66 eb 5f 3c
       0.07452328 0.048619244 0.0033080117 0.013666963
0000f0 35 2d 4a 3d b4 f9 2c bd 77 75 25 bc a2 da ad bc
       0.04935952 -0.042230323 -0.010098807 -0.021222416

layers.1.weight f4 [64, 64]
000000 54 c9 6b bd 88 65 94 bd 0e 5e 19 3c 43 e4 94 3d
       -0.05756505 -0.07245928 0.009360803 0.072701
000010 a9 81 23 bc e3 45 c9 3d 90 4d 0a 3b c5 1f 93 3c
       -0.009979644 0.09827783 0.002110336 0.017959485
000020 4c e0 76 bd 58 c1 8d bc c8 c4 96 3d 17 5c 59 3d
       -0.0602725 -0.017304108 0.07361752 0.05306634
000030 0e 85 96 bb c2 ff b4 bd b2 35 44 3d a7 65 39 3d
       -0.004593498 -0.088378444 0.04790277 0.04526296
000040 5d 82 30 3d 3c 94 2c bd ab c1 cd 3d ec 8b ac 3c
       0.043093074 -0.042133555 0.10046705 0.021062814
000050 47 c8 af bd 47 b4 2f 3d 81 dd c0 bc 3d d7 d6 3c
       -0.08583122 0.042896535 -0.023543121 0.02622568
000060 1e 58 aa 3c bf 65 b0 bc 5b a9 95 3c 50 19 98 3b
       0.02079397 -0.021532891 0.018269232 0.0046416894
000070 39 b5 65 bd ac 72 8f bc 64 59 3c bd f7 81 3e bd
       -0.05608103 -0.017510734 -0.045983687 -0.046510663
000080 4e 0d c7 3d c1 4b 79 bd e7 8d 8f 3c 93 b9 5d bd
       0.097193345 -0.06086326 0.017523719 -0.054132055
000090 d7 ef aa bb 30 75 7f bc fd 33 be 3d 17 78 a9 3d
       -0.0052165794 -0.0155919045 0.0928726 0.082748584
0000a0 27 11 96 3d bf 20 ef 3b bf 76 27 bd 9d ff e4 3c
       0.0732749 0.007297605 -0.04088473 0.027953917
0000b0 f5 cc 6d bd d6 50 30 3c d8 9d 70 3d 21 99 7e bb
       -0.05805679 0.01076146 0.05874428 -0.0038848596
0000c0 3e 31 9f 3c c0 ed 1e bd 26 cc 7c 3d 69 f9 27 bd
       0.01943266 -0.038800955 0.06171813 -0.04100934
0000d0 f9 1a 61 bc da d0 2a 3a e3 0e 76 bc ea 39 89 bd
       -0.013739341 0.00065161067 -0.015018198 -0.06700499
0000e0 00 be b2 bd 6e db 3c bc 9e 1e 6d 3d ab da dc bc
       -0.08727646 -0.0115269255 0.057890527 -0.026959738
0000f0 d8 0e 2d bd b1 17 b2 3d 7c ee 45 3d 9f d7 b4 bc
       -0.042250484 0.08695925 0.04832314 -0.022075472
000100 9f 16 71 3d b5 fe 63 3d c5 45 ed bc 2f 8d 00 3c
       0.058859464 0.05566283 -0.028963933 0.007846161
000110 7c ef 9e bc 58 4d a1 bd 46 6a a7 bd 4a b9 5a 3d
       -0.019401304 -0.0787608 -0.08174567 0.05339936
000120 04 0a d5 bc 26 df 7b 3d 4b 7a 3e bb 1f 45 81 3d
       -0.026005752 0.061492108 -0.0029064592 0.06312012
000130 8b 66 3e bd 1a d2 bd bb 02 96 7b bd eb f0 33 bc
       -0.04648451 -0.0057928683 -0.061422355 -0.010982732
000140 57 ec 51 bc 23 12 88 bd 5d 7a b8 3c 61 32 20 3d
       -0.0128126955 -0.06644084 0.022519285 0.039110545
000150 31 16 37 3d 89 26 bb 39 d9 bc e6 bc 4e f1 61 bd
       0.044698898 0.0003569613 -0.028166221 -0.055161767
000160 2e 65 fc 3c dd bc 85 bb 4c 25 52 3d 93 21 86 bd
       0.030809965 -0.004081352 0.0513051 -0.065493725
000170 e8 8e 9b 3d 6c b3 4c bd 3f 21 29 3d ac 42 04 bd
       0.075956166 -0.049975798 0.04129147 -0.032290146
000180 a8 4c 84 bd 27 13 bd 3c 96 12 9b 3d 64 7d 93 bd
       -0.064599335 0.023080422 0.07571904 -0.07201651
000190 f0 59 5d 3d ac 0d 0c bc 42 3b ae bc 05 af 14 bb
       0.05404085 -0.0085481815 -0.02126849 -0.0022687328
0001a0 e7 85 80 3c 3a 43 88 3d f8 19 d3 bc 6a a5 5c bd
       0.01568885 0.066534474 -0.025769219 -0.05386869
0001b0 09 0a c2 bc 0e 20 6b bb c5 67 7e bd b5 69 ac 3d
       -0.023686426 -0.003587726 -0.06211068 0.084185995
0001c0 a2 65 9c 3d 8a b7 83 3d be 4d 80 bd 86 cc 4b 3d
       0.076365724 0.06431492 -0.06264828 0.049755596
0001d0 9c 74 a0 3d 76 77 66 3d c7 da 5e 3d 7c 41 ca bc
       0.078347415 0.05626627 0.05440786 -0.024689429
0001e0 73 39 bf 3b 45 6f a6 bc 91 5a ec 3a b9 23 16 3d
       0.005835706 -0.02031673 0.0018032362 0.03665516
0001f0 d9 66 5b 3d 64 86 38 bd f8 96 e4 bc 6e fe 04 3d
       0.05356488 -0.04505004 -0.027904019 0.032469206
000200 a4 79 8d bd 9a 50 90 bd 83 4b af bb 29 8b 46 bd
       -0.06907967 -0.070466235 -0.005349578 -0.048472557
000210 7f 8b 62 3c 19 40 bc 3d 90 ed bd 3d e7 92 93 bd
       0.013827204 0.09191913 0.09273827 -0.07205754
000220 83 5f 2c 3d 68 05 7b bd 31 75 fb bc be 0e d0 3b
       0.042083275 -0.061284453 -0.03069553 0.0063494137
000230 57 a1 0b bc b9 05 e0 bc f1 50 31 3d f8 a2 e6 3a
       -0.008522353 -0.027346479 0.043290082 0.0017596176
000240 c6 3e af 3b 68 52 17 bd 9a e5 41 bd ba 9e 46 3c
       0.0053480593 -0.036943823 -0.047338106 0.012122804
000250 0b 19 bd bd 71 fb 52 bd 38 34 5f bd 82 d4 65 3c
       -0.09233292 -0.051509324 -0.05449316 0.014027717
000260 cc 58 c3 bd 7d cd c5 bc 5f d9 da bc 39 a1 02 3d
       -0.09538421 -0.024145836 -0.026714979 0.031892035
000270 71 38 f3 bb ec 74 41 bd a1 f7 f2 3c 61 f7 43 3d
       -0.0074225 -0.047230646 0.029659094 0.04784334
000280 29 51 54 3d 03 80 3c 3d e5 e9 2c bd 1d 1a ed 3c
       0.051835213 0.04602052 -0.042215247 0.028943116
000290 4f 5e 01 3c 16 2f ba bb 78 01 ef 3c 65 f3 bf 3d
       0.00789602 -0.0056818826 0.029175505 0.09372596
0002a0 54 d9 24 bd d5 d9 20 bd bd ed c3 bc dd db 5c 3c
       -0.040246323 -0.03927024 -0.023917073 0.013480154
0002b0 3d 2c 38 bc e5 eb 9c 3d ac e5 a3 bd d3 64 15 3d
       -0.011241016 0.07662181 -0.08002791 0.036473107
0002c0 78 33 06 bd bf 3f c9 3c ff f0 9c 3d 5a 45 5f 3c
       -0.03276393 0.02456653 0.07663154 0.013627375
0002d0 ac 07 bf bc 5d 1f 1b bd 34 b9 f9 bc a0 68 9a bd
       -0.023319088 -0.037871707 -0.03048382 -0.07539487
0002e0 c2 a9 83 bc 59 36 9b bd 27 b5 0a 3d 41 32 f8 bc
       -0.016072158 -0.07578725 0.033864167 -0.0302974
0002f0 a7 52 05 bb f0 5f 08 3c bb e6 b7 ba fb 71 5f bd
       -0.0020343454 0.0083236545 -0.0014030555 -0.05455206
000300 99 2c 51 3d 3e 2b a1 3c cb 2d 1d 3d 86 57 33 bd
       0.051067922 0.01967394 0.03837375 -0.04378464
000310 7a cc ed bd 80 82 47 bd ed 73 34 be 04 33 0b 3e
       -0.116112664 -0.04870844 -0.17622347 0.1359368
000320 71 e5 12 3e 64 50 a7 3d 06 6d 6f 3c 83 60 12 3d
       0.14345337 0.0816963 0.014613396 0.035736572
000330 a7 95 a6 bd d3 bf 06 3e 13 d8 27 3a a9 dc 03 3b
       -0.08134013 0.13159113 0.0006402742 0.0020120537
000340 26 88 61 bd f6 05 69 bd fb 9f bb bd 82 f3 43 3c
       -0.055061482 -0.05689045 -0.09161373 0.011959912
000350 26 a3 d7 3d d2 f2 0d 3e 3a 49 be 3d 48 e4 c0 3d
       0.10529165 0.1386216 0.092913106 0.09418541
000360 01 06 f8 bc 13 3f 40 bd 2a 51 94 bc c2 68 0b be
       -0.0302763 -0.046935152 -0.018105108 -0.1361418
000370 8c e1 5c 3d 57 55 19 be 2c e5 c6 3d 23 9b ed bc
       0.053926036 -0.14973961 0.0971168 -0.029004639
000380 c6 d4 cc bd ea 9e c2 3d ae ac dd 3d 9b c2 b3 bd
       -0.10001521 0.09502967 0.10823952 -0.087773524
000390 a2 c3 6f 3d 80 9b e8 bd 52 d7 8a bd 3c 5b 31 be
       0.05853618 -0.11357784 -0.0677935 -0.1731996
0003a0 e4 eb be bd a9 de 29 3e 17 02 9e bd a9 5a 58 3c
       -0.09322336 0.16588844 -0.07715242 0.013205209
0003b0 c0 25 90 3d 7b 60 16 be 33 a5 47 3d 1f f0 6b 3d
       0.0703845 -0.14685242 0.04874153 0.057602044
0003c0 b7 73 02 be 67 06 8a 3d 2c 66 ef bd fd 48 89 bd
       -0.12739454 0.067395024 -0.116894096 -0.067033745
0003d0 55 1c 9c 3d 15 6e fb bc e5 b9 a9 bd 5c 45 5a 3c
       0.076225914 -0.03069214 -0.0828741 0.013322201
0003e0 e2 7a e2 3d 31 77 dc 3d 32 ec 36 3d aa 9f 48 bd
       0.11058594 0.107649215 0.044658847 -0.048980393
0003f0 de 56 1d bc c0 5c 0a bd 62 c5 64 ba af c6 83 3d
       -0.00960323 -0.03377986 -0.0008726922 0.0643438
