saved_bots/UIV4VVGRV4/ppo.pt (torch, 344151 bytes, 9 tensors)

cnn.0.weight f4 [32, 5, 3, 3]
0	0x3d5613b0	0.05226487
1	0xbdb66c3e	-0.08907364
2	0xbd54df7d	-0.051970948
3	0x3d3d0f21	0.046157006
4	0xbe25e437	-0.16200338
5	0x3d8621c5	0.0654941
6	0xbd5b3923	-0.053521287
7	0x3d51640b	0.0511208
8	0xbb3b1e3c	-0.0028551957
9	0xbd56f009	-0.05247501
10	0x3bc77737	0.0060872096
11	0xbcdc11a0	-0.026863873
12	0x3c9f5568	0.019449905
13	0xbdbc57ac	-0.091964096
14	0xbd370417	-0.044681635
15	0xbd419d09	-0.0472689
16	0xbc550ba7	-0.013003266
17	0xbd0d092f	-0.034432586
18	0x3e09c280	0.13453102
19	0x3d132f6d	0.0359339
20	0xbd88ad3a	-0.06673665
21	0xbd93a1f3	-0.07208624
22	0xbcc8e869	-0.024524884
23	0xbd68dfd5	-0.056854088
24	0xbd178e06	-0.03700068
25	0xbb167b4b	-0.0022961672
26	0x3da78685	0.081799544
27	0x3dbf62b9	0.09345002
28	0xbe16fe69	-0.14745487
29	0x3dbdb7e1	0.09263588
30	0x3d5ba386	0.053622745
31	0x3e0bd57a	0.13655654
32	0x3dcf46ed	0.1012095
33	0xbddbfc24	-0.107414514
34	0xbe0c3b00	-0.13694382
35	0xbd773db7	-0.06036159
36	0x3e0cf08a	0.13763633
37	0xbd207b05	-0.03917982
38	0x3d533b19	0.05157003
39	0xbd582ef5	-0.052779157
40	0x3e0ca7bd	0.13735862
41	0xbd828c54	-0.06374422
42	0x3e00f02c	0.12591618
43	0xbbd05d09	-0.006358747
44	0xbdaa7130	-0.0832237
45	0x3d3bb3aa	0.045825638
46	0xbdde3c47	-0.10851341
47	0x3c7750dc	0.015094962
48	0xbd94105a	-0.07229681
49	0xbd3ef513	-0.04662044
50	0xbe2df3f4	-0.16987592
51	0xbdcb4c8d	-0.0992671
52	0x3d4cf82b	0.05004136
53	0xbd81ed98	-0.063441455
54	0x3e12c6d4	0.1433366
55	0x3de8e927	0.11372595
56	0xbc1582fc	-0.009125467
57	0xbdd00168	-0.10156518
58	0x3dae6586	0.08515458
59	0x3d314561	0.043279056
60	0xbdc7d9ae	-0.09758316
61	0x3dbc3bdb	0.09191104
62	0x3db3e7ac	0.08784422
63	0x3e17e904	0.14834982
64	0xbdb0ec86	-0.08638863
65	0xbcb68341	-0.022279384
66	0x3c9a2a12	0.018818889
67	0x3c479fdc	0.01218411
68	0xbdf05f18	-0.11736888
69	0xbdb9ba51	-0.0906874
70	0x3d931cb9	0.07183213
71	0xbd330cfc	-0.043713555
72	0x3db500b6	0.08838026
73	0x3c2681a9	0.010162749
74	0x3d0c6f14	0.03428562
75	0x3d505ca0	0.050869584
76	0x3d6eb470	0.058277547
77	0x3d73034a	0.05932931
78	0xbdcb6648	-0.09931618
79	0x3dbd960b	0.09257134
80	0xbddb0453	-0.10694184
81	0xbda4d29a	-0.080479816
82	0x3cc08e97	0.023505492
83	0xbcc55ce4	-0.024092145
84	0x3df34612	0.11878599
85	0xbd87791d	-0.066148974
86	0xbe086e82	-0.13323405
87	0x3e01c243	0.12671761
88	0xbca52fb8	-0.020164356
89	0x3d9fb341	0.07797862
90	0x3c8b2d4a	0.016989369
91	0xbe105b0e	-0.14097235
92	0xba0d1c85	-0.0005382973
93	0x3b9bd825	0.004755991
94	0xbe04a14a	-0.12952152
95	0xbdcdb8e3	-0.1004503
96	0x3ca602a6	0.020264935
97	0xbb813d74	-0.0039440934
98	0xbdbd5c9b	-0.09246179
99	0xbd7c08f7	-0.061531987
100	0x3df238d8	0.11827248
101	0xbd2d9971	-0.04238266
102	0x3d86776e	0.06565748
103	0x3d3f7726	0.04674449
104	0xbde2cc1a	-0.110740855
105	0xbe11606f	-0.14196943
106	0x3dff96b9	0.1247992
107	0xbbef3a35	-0.00730064
108	0x3dd5b52f	0.10434949
109	0x3ce5c149	0.028046267
110	0x3d6aee6e	0.05735629
111	0x3decc9d7	0.115619354
112	0x3e0ef629	0.1396109
113	0xbda80004	-0.08203128
114	0x3ca547cc	0.020175837
115	0x3ddee70f	0.10883915
116	0x3ded2e00	0.115810394
117	0x3dec33ff	0.11533355
118	0xbda7761d	-0.08176825
119	0xbdafbd70	-0.08581054
120	0xbdacf90b	-0.08445939
121	0x3cdc3ae0	0.026883543
122	0x3e1841a3	0.14868788
123	0xbd8b80e5	-0.06811694
124	0x3dd162de	0.102239355
125	0xbd75f899	-0.060051534
126	0xbdebfe91	-0.11523164
127	0xbccdd72b	-0.025127014
128	0x3dd235e6	0.102641866
129	0x3e1b94a4	0.1519342
130	0xbdaee579	-0.08539862
131	0x3d40b358	0.047046036
132	0x3e0e1a5b	0.13877241
133	0x3dcd5a71	0.10027016
134	0x3dd596b9	0.10429139
135	0x3df49a2b	0.11943468
136	0x3ddea10c	0.10870561
137	0x3d58761d	0.052847017
138	0xbdaf653b	-0.0856423
139	0xbddce969	-0.10786707
140	0xbd570f2e	-0.05250471
141	0xb880617c	-6.1216735e-05
142	0xbd9464aa	-0.07245763
143	0x3d90e2d4	0.07074514
144	0x3d8358cb	0.0641342
145	0xbc5a29a4	-0.013315592
146	0x3d9afe0c	0.07567987
147	0x3d89614f	0.06708013
148	0x3de2ec0a	0.11080177
149	0x3df40cd5	0.1191651
150	0xbcf3d62c	-0.029765211
151	0x3e2977cb	0.16549604
152	0x3b6a6db9	0.0035770966
153	0x3b3b1d42	0.0028551375
154	0xbe26f093	-0.1630271
155	0xbd6da10f	-0.058014926
156	0xbd9a3259	-0.07529134
157	0xbd80da75	-0.06291667
158	0x3e126c8f	0.14299224
159	0xbd6957a1	-0.056968335
160	0xbe1b1b8b	-0.15147226
161	0x3dcd4b78	0.1002416
162	0x3d9da117	0.07696741
163	0x3e0e7bc0	0.13914394
164	0xbcfa6f2c	-0.030570589
165	0x3d310bc4	0.04322411
166	0xbc835a48	-0.01603426
167	0x3c273209	0.0102048
168	0xbe00c2c7	-0.12574302
169	0xbcccd040	-0.025001645
170	0x3c180819	0.009279274
171	0x3dba2b0f	0.09090244
172	0x3bed62a8	0.0072444268
173	0x3d90add5	0.07064406
174	0x3e3c4510	0.1838572
175	0x3e1f3b3c	0.1554994
176	0x3e0d6187	0.13806735
177	0x3d0a9646	0.03383472
178	0xbde181e2	-0.11011101
179	0x3e1b800a	0.15185562
180	0xb9b3f3c9	-0.00034323175
181	0x3cc969c5	0.024586568
182	0xbdb6db72	-0.089285746
183	0x3c0c6c70	0.008570775
184	0xbd6c3020	-0.057663083
185	0x3e31bc9e	0.17357108
186	0xbdb9418e	-0.09045707
187	0xbda075f8	-0.07835001
188	0x3d043fd7	0.032287445
189	0xbd025e63	-0.031828295
190	0x3dcd4616	0.100231335
191	0xbc10bcee	-0.008834107
192	0xbcb071b1	-0.021538587
193	0x3d63f983	0.055657875
194	0x3e1ddef5	0.15417083
195	0xbd67c190	-0.05658108
196	0x3ded17d9	0.11576814
197	0x3e10b8ff	0.1413307
198	0x3e4eef21	0.20208408
199	0xbd8bd390	-0.06827462
200	0x3da858e0	0.082200766
201	0xbd84d4ce	-0.06485902
202	0x3e0fddfc	0.14049524
203	0xbcd4ad75	-0.025961617
204	0x3e111fa2	0.14172223
205	0x3d355778	0.04427287
206	0x3d2240b1	0.039612476
207	0x3d8aea06	0.06782918
208	0x3d8b6041	0.06805468
209	0x3dc51d9a	0.09624787
210	0x3de46493	0.111519955
211	0x3dd99d85	0.106257476
212	0xbde7f1ff	-0.11325454
213	0x3e377a73	0.17917804
214	0x3e46fd07	0.1943246
215	0x3e2563d6	0.16151366
216	0x3e4e529c	0.201487
217	0xbdf4c1ae	-0.11951004
218	0xbcbeb481	-0.02327943
219	0x3e656d04	0.22404867
220	0xbd9d0379	-0.07666678
221	0x3e39ba85	0.18137558
222	0xbc9a2d44	-0.018820412
223	0xbd912390	-0.07086861
224	0x3df2044a	0.11817224
225	0xbdf5a263	-0.119938634
226	0xbd3b4b8c	-0.045726344
227	0x3dc418c5	0.09575037
228	0x3dd25eee	0.10272013
229	0x3e0281f3	0.12744884
230	0xbd281353	-0.041034054
231	0xbe02bd0a	-0.12767425
232	0x3e08f950	0.13376355
233	0xbd2bd1e3	-0.04194821
234	0xbdd2b36d	-0.10288129
235	0xbbadfd88	-0.0053097643
236	0xbe12c88f	-0.1433432
237	0x3d5e9c5b	0.05434833
238	0x3d5105ee	0.051031046
239	0xbe20ffc6	-0.1572257
240	0xbe26679a	-0.16250458
241	0xbd5a7193	-0.05333097
242	0x3cb5e0b6	0.022201877
243	0xbcca8d47	-0.02472557
244	0xbde60533	-0.112314604
245	0x3c09eefe	0.008418797
246	0xbe13e84b	-0.14444081
247	0xbe00a837	-0.12564169
248	0xbd9e67e6	-0.07734661
249	0x3de5a5db	0.11213275
250	0x3de16d72	0.11007203
251	0xbd2a5b6f	-0.041591104
252	0xbc3f6687	-0.011682159
253	0x3d569700	0.0523901
254	0x3ce6cccd	0.028173828
255	0xbda76ae5	-0.081746854

cnn.0.bias f4 [32]
0	0x3dbbd78c	0.09171972
1	0x3d1b2cca	0.03788451
2	0x3daf0c8b	0.08547314
3	0xbddc3013	-0.10751357
4	0xbdb3cba3	-0.08779075
5	0x3d5f7767	0.05455723
6	0xbd141771	-0.036155168
7	0x3d865926	0.065599725
8	0xbd8cf40f	-0.06882488
9	0xbc94f9a7	-0.01818545
10	0xbc05aa43	-0.008158269
11	0x3de74165	0.1129177
12	0x3dc4ac2e	0.09603153
13	0xbcab7e16	-0.020934146
14	0xbc1e7782	-0.009672048
15	0x3bb267cf	0.005444504
16	0x3d7a17f8	0.061058015
17	0xbdb09df2	-0.08623876
18	0xbcd76cd6	-0.026297014
19	0xbdf3b4cc	-0.11899719
20	0x3d1ee5f9	0.038793538
21	0xbcbdd5e8	-0.023173288
22	0x3daa0cf4	0.08303252
23	0x3df3f718	0.11912364
24	0xbddffd1a	-0.10936947
25	0xbd089f69	-0.03335515
26	0xbcc3862d	-0.023867691
27	0xbc76b724	-0.015058313
28	0xbcf30ac6	-0.029668223
29	0xbd54a8a4	-0.05191864
30	0xbd80731b	-0.062719546
31	0x3ccb65d0	0.024828821

mlp.weight f4 [12, 5984]
0	0x3b96ad24	0.0045982767
1	0x3bd5e0cb	0.0065270416
2	0x3ba61b7a	0.0050691934
3	0x3b1bb1f6	0.0023757196
4	0x3ba342df	0.004982337
5	0xba5227fc	-0.00080168224
6	0x3a94ff7b	0.0011367643
7	0x395ac582	0.00020863677
8	0x3ae0c896	0.0017149623
9	0x3a8106e2	0.000984397
10	0x3a7a8610	0.000955672
11	0xba76494b	-0.0009395077
12	0x3b362a65	0.0027796265
13	0x3ad370e8	0.0016131671
14	0x3a446004	0.0007491114
15	0x3badb78d	0.005301422
16	0xba3ad7ef	-0.00071275135
17	0xbb095532	-0.0020955321
18	0xbb20d727	-0.0024542303
19	0xb90264da	-0.00012435336
20	0xb9667293	-0.00021977191
21	0xb9402e05	-0.0001832769
22	0x3b090126	0.0020905226
23	0x3b93dde4	0.0045125354
24	0x3b81c0de	0.003959759
25	0x3b82ce97	0.0039919126
26	0x3bbef86d	0.0058279545
27	0xbb2f4a7d	-0.002674728
28	0xbb48894b	-0.003059941
29	0xbb5be04e	-0.0033550444
30	0xba95e18f	-0.001143502
31	0xba87b559	-0.0010353728
32	0xbb0303b3	-0.0019991219
33	0x3a7d44f0	0.00096614566
34	0x3b18eb43	0.0023333586
35	0x3b5ac004	0.003337861
36	0x3b3ffe20	0.0029295757
37	0xbac99d4c	-0.0015381961
38	0xba47dc0d	-0.00076240377
39	0xb8a6507b	-7.9304875e-05
40	0xbb6aaced	-0.0035808638
41	0xbb9e0869	-0.00482278
42	0xbb5b807c	-0.003349333
43	0xbb071f5a	-0.0020618052
44	0x384aa138	4.83107e-05
45	0x3a987925	0.0011632784
46	0x3a338165	0.00068475894
47	0x3b5d330b	0.0033752348
48	0x3c07ea85	0.00829566
49	0x3b853799	0.0040654656
50	0x3b934636	0.004494454
51	0x39ea16cf	0.00044648952
52	0x3abd4add	0.0014441867
53	0x3b762e23	0.003756412
54	0x3ac897e1	0.0015304053
55	0x3a5443da	0.0008097269
56	0xb9d86a62	-0.00041277992
57	0xbb6fd2da	-0.0036594183
58	0x3b55e0b9	0.0032635166
59	0x3bb4b9c6	0.00551531
60	0x3bb36505	0.005474689
61	0x3b50f65e	0.0031885128
62	0x3b03d08d	0.002011332
63	0x3bc7b34d	0.0060943724
64	0x3c09b42e	0.008404775
65	0x3bcf0756	0.006318013
66	0x3a8a328f	0.0010543632
67	0x3ad53a6e	0.0016268024
68	0xbac4507b	-0.0014977598
69	0x3ba40528	0.0050054975
70	0x3b5ba7b5	0.003351671
71	0x3b86483a	0.0040979655
72	0x3be1b35d	0.006887837
73	0x3b532831	0.003222
74	0x3bb28fd1	0.005449273
75	0x3b9272c4	0.0044692475
76	0x3b09b664	0.0021013254
77	0xbabdc42d	-0.0014478021
78	0xbb3c2a42	-0.002871171
79	0xbb4be091	-0.0031109194
80	0x3aaa0269	0.0012970689
81	0x3b0fc40a	0.0021936917
82	0x3a654bda	0.00087469595
83	0x3a8a0356	0.0010529559
84	0x3abc9839	0.0014388628
85	0x3a942962	0.0011303837
86	0x3b0073a5	0.001960018
87	0x39870be2	0.0002575806
88	0x3b876c27	0.004132766
89	0x3c03852f	0.008027359
90	0x3b42395f	0.0029636247
91	0x3aa470f7	0.0012545873
92	0x3a575780	0.00082146376
93	0x3b50b6e5	0.0031847295
94	0xb9cc18e0	-0.00038928445
95	0xbb462393	-0.0030233606
96	0xbb4992e7	-0.0030757727
97	0xbae05fe7	-0.0017118425
98	0xbb0704ae	-0.0020602155
99	0x3b31d358	0.0027134027
100	0x3af8f53a	0.0018993982
101	0xbb59419c	-0.0033150679
102	0xbaf0ee94	-0.0018381649
103	0xbacb343c	-0.0015503238
104	0x3b3083df	0.002693407
105	0x3abff8c8	0.0014646286
106	0xba38e41a	-0.0007053033
107	0xb8d064aa	-9.936963e-05
108	0x3b35fb46	0.002776818
109	0xb9615c1c	-0.00021491986
110	0x3b43203f	0.002977386
111	0x3b5080b5	0.0031814997
112	0xbacfe57c	-0.0015861238
113	0x3b9416ad	0.0045193047
114	0x3a4f4439	0.00079065893
115	0x38de8177	0.000106098996
116	0x3b2aad72	0.0026043323
117	0x3b3abe78	0.0028494876
118	0x3b1787f0	0.0023121797
119	0x3b3e26de	0.0029014866
120	0x3b32ee50	0.002730269
121	0x3b6481cb	0.0034867402
122	0x3b020618	0.0019840058
123	0x3aa55336	0.00126133
124	0x3bbd7ea4	0.005782919
125	0x3b4bc75e	0.0031094174
126	0x3a3a6475	0.0007110306
127	0xba4b1d06	-0.000774816
128	0x3a9854c2	0.001162194
129	0x3a926b96	0.0011170979
130	0x3a911024	0.0011067432
131	0x3a81f120	0.000991378
132	0x3b661c02	0.0035111909
133	0x3b577d5c	0.0032881116
134	0x3b0d3b13	0.0021550104
135	0xbb0bd3a5	-0.0021335867
136	0xba9c5182	-0.0011926147
137	0x3b8371b8	0.004011359
138	0x3b17cce1	0.0023162889
139	0x3b08f57a	0.0020898269
140	0xba21c32a	-0.00061707443
141	0x3b3f8848	0.0029225517
142	0x3b5d09d1	0.0033727775
143	0x3b5a9660	0.003335379
144	0x3b8b0257	0.0042422223
145	0x3bc1b066	0.005910921
146	0x3b024167	0.0019875409
147	0x3b6048ee	0.0034223157
148	0x3af68534	0.0018808008
149	0x3b8356b5	0.004008139
150	0x3b773953	0.0037723377
151	0x3a13a768	0.00056325505
152	0x3ac3d611	0.0014941116
153	0x39f0ad7a	0.00045905617
154	0x3bb11abe	0.0054047992
155	0x3bd4b3f2	0.0064911777
156	0x3bc9c385	0.006157341
157	0x3bd86650	0.0066039935
158	0x3b888ed7	0.0041674185
159	0x3b66ac63	0.0035197965
160	0x3aaafab6	0.0013044688
161	0x3ac77e7e	0.0015220193
162	0x3a6dcb1e	0.00090710993
163	0x3b42405d	0.0029640414
164	0x3a814a2f	0.0009864027
165	0x3b17e118	0.0023174938
166	0x3beae892	0.007168838
167	0x3be9d0d0	0.007135488
168	0x3b9467f0	0.004528992
169	0xbb36fe11	-0.0027922431
170	0xbad59877	-0.0016296048
171	0x3b7a8cdc	0.0038230931
172	0x3bf79408	0.0075554885
173	0x3b756111	0.003744189
174	0x3b6f1f64	0.0036487216
175	0x3a9a92dc	0.0011793035
176	0x3b52c9fd	0.0032163851
177	0x3bb4ea33	0.005521083
178	0x3bd65d64	0.0065418947
179	0x3bead898	0.0071669333
180	0xbb02e1bd	-0.0019970976
181	0xba9f5a06	-0.0012157566
182	0x3a3bb610	0.00071606133
183	0x3b85c41e	0.004082217
184	0x3b4122f8	0.0029470306
185	0x3b8f88bf	0.004380315
186	0x3ba9a7a7	0.0051774564
187	0x3bc260ff	0.005931973
188	0x3bbc5ed8	0.005748611
189	0x3c1fbb6b	0.009749274
190	0x3b67ddf7	0.0035380104
191	0xb964b3be	-0.00021810734
192	0x3bd3d45e	0.006464525
193	0x3b6a6462	0.00357654
194	0x398d4033	0.00026941448
195	0x3c567a7a	0.013090724
196	0x3c331901	0.010931254
197	0x3b2fd6c3	0.0026830889
198	0x3b531a6d	0.0032211796
199	0x378b2992	1.6589449e-05
200	0x3c2d2180	0.010567069
201	0x3bebfb78	0.0072016083
202	0x3c37bea0	0.011214882
203	0x3c42630f	0.011864438
204	0x3b272804	0.002550603
205	0xbb3cd96b	-0.0028816115
206	0x3b1547a4	0.0022778297
207	0x3c158dc5	0.009128039
208	0x3b089e75	0.00208464
209	0x3bb579a6	0.0055381833
210	0x3bae660a	0.0053222226
211	0x3c6504c7	0.01397819
212	0x3bdeb8db	0.006796939
213	0x3b8d2194	0.0043069813
214	0x3bbf0460	0.005829379
215	0xbb1af204	-0.0023642788
216	0xbb5c22b7	-0.0033590028
217	0xbbd2ee57	-0.0064371037
218	0x39678c04	0.00022082037
219	0xbb6eef0f	-0.0036458408
220	0x3bdec0c7	0.006797883
221	0x3be0b924	0.006858008
222	0x3bee0c76	0.007264669
223	0xbab7438a	-0.001398192
224	0x3b7d4b75	0.0038649712
225	0x3c1958cb	0.009359549
226	0x3bf53ff7	0.007484432
227	0x38333314	4.2724496e-05
228	0x3a06fe24	0.0005149564
229	0x3b7272d4	0.0036994712
230	0x394648cc	0.0001890987
231	0x3c09d695	0.008412977
232	0x3bbfc31e	0.005852117
233	0x3b820d62	0.0039688805
234	0x3ab54398	0.0013829349
235	0x3be67de9	0.0070340526
236	0x3c4bf121	0.012447626
237	0x3c627c46	0.013823574
238	0x3b9c71b9	0.004774299
239	0x3c599a75	0.013281454
240	0x3c53e7f2	0.012933718
241	0x3c1116e4	0.008855555
242	0x3c20ee1f	0.0098223975
243	0x3b616407	0.0034391896
244	0xba2a3156	-0.0006492337
245	0x3bdd9415	0.0067620375
246	0x3c87e485	0.016588459
247	0x3c122938	0.00892096
248	0x3c5e28e9	0.013559558
249	0xbb13c605	-0.0022548449
250	0x3c0f39f0	0.008741841
251	0x3c0a791c	0.008451726
252	0x3c35304c	0.011058878
253	0x3bb27fff	0.005447387
254	0xba9c2def	-0.0011915545
255	0x3b0926f0	0.002092775

mlp.bias f4 [12]
0	0x3aa683fb	0.0012704128
1	0xbbd367b4	-0.0064515714
2	0xbb6d9a38	-0.0036255252
3	0x3bf2c81c	0.007409109
4	0x3c890c93	0.016729629
5	0x3cc6fec2	0.0242914
6	0xbb91c25b	-0.004448218
7	0xbbde8f02	-0.00679195
8	0xb6e68a64	-6.870645e-06
9	0xbab5a461	-0.0013858193
10	0xbb80a760	-0.0039262027
11	0xbb2a24a3	-0.0025961779

cnn.0.weight f4 [32, 5, 3, 3]
0	0x3e8c8b2d	0.27449933
1	0x3e6b9ab6	0.23008236
2	0x3e77dbe9	0.24204983
3	0x3d84e343	0.06488659
4	0x3e831ebb	0.25609383
5	0x3d9264e7	0.07148152
6	0x3d99c168	0.075075924
7	0x3e4c3c5f	0.19944905
8	0x3e847d5a	0.25876886
9	0x3e1754fa	0.1477851
10	0x3e966f76	0.29381913
11	0x3e914c24	0.28378403
12	0x3e25e85d	0.16201921
13	0x3dc880e1	0.09790207
14	0x3e83d019	0.25744703
15	0x3e4829db	0.19547217
16	0x3e946f1a	0.28991014
17	0x3e84b896	0.25922078
18	0xbdd82bd6	-0.10555236
19	0xbe1121ef	-0.14173101
20	0xbe82ed1e	-0.2557153
21	0xbd1ee883	-0.03879596
22	0xbe99e6c8	-0.30058885
23	0xbcf23f46	-0.029571187
24	0xbd714a63	-0.05890883
25	0xbd43d4cd	-0.047810365
26	0xbe86bf4e	-0.2631783
27	0xbdefd1c0	-0.117099285
28	0xbe8f67d5	-0.28008905
29	0xbe8d28ac	-0.27570093
30	0xbdb5d234	-0.08877984
31	0xbe722db1	-0.23650242
32	0xbddbb5a1	-0.10728002
33	0x3cb236de	0.021754678
34	0xbb74cab5	-0.0037352268
35	0xbdb40806	-0.08790593
36	0xba932c53	-0.001122842
37	0xbe30c885	-0.17263992
38	0xbe743275	-0.23847373
39	0x3d943595	0.072367825
40	0xbe56788b	-0.20944421
41	0xbe2c9d2c	-0.16856831
42	0x3a21708e	0.00061584346
43	0xbd661726	-0.05617442
44	0xbd800cc8	-0.06252438
45	0xbde78775	-0.11305133
46	0xbdd478b5	-0.103745855
47	0x3c48731e	0.012234477
48	0x3cb4be2c	0.022063337
49	0xbe0f26c9	-0.13979639
50	0xbe2a65ad	-0.16640349
51	0xbe3d4860	-0.1848464
52	0xbdd33e4d	-0.10314617
53	0xbdeb5df1	-0.11492527
54	0xbce987df	-0.028507171
55	0x3cd3224d	0.025773192
56	0xbd410f64	-0.04713382
57	0xbe0d4764	-0.13796765
58	0xbdab2baa	-0.08357938
59	0xbd5fccc2	-0.05463863
60	0xbe18f4b2	-0.14937094
61	0xbe4096c7	-0.18807517
62	0xbe19d1b8	-0.15021408
63	0xbd6b8925	-0.057503838
64	0xbd80ab8e	-0.062827215
65	0xbdc933db	-0.09824344
66	0xbc9e95cf	-0.019358544
67	0x3afd06ac	0.0019304357
68	0xbda159df	-0.0787847
69	0x3d2c388d	0.04204612
70	0xbcc15e6b	-0.023604592
71	0xbdc453dd	-0.09586308
72	0xbd1daefa	-0.03849695
73	0xbd800cdf	-0.06252455
74	0xbe1de4b2	-0.15419272
75	0xbd245d9b	-0.04012833
76	0xbd457689	-0.048208747
77	0xbe13e832	-0.14444044
78	0xba41b5fd	-0.0007389484
79	0xbe0a817f	-0.13525961
80	0x3c9843c6	0.018587004
81	0xbd1ae98d	-0.037820388
82	0xbdb59108	-0.08865553
83	0xbdc2e9b1	-0.09517229
84	0x3d5f4e55	0.054518063
85	0xbd9a689b	-0.07539483
86	0xbe056880	-0.13028145
87	0x3ba07ec1	0.0048979227
88	0xbbc44004	-0.0059890766
89	0xbdcbcdf6	-0.09951393
90	0x3df592b2	0.119908705
91	0x3e12d009	0.14337172
92	0x3e15b1f7	0.1461867
93	0x3ddddb14	0.108328015
94	0x3e94989e	0.29022688
95	0x3e586565	0.21132429
96	0x3e92dc89	0.2868388
97	0x3e1ab7a8	0.15109122
98	0x3e7c3fa2	0.24633649
99	0x3e773184	0.24139982
100	0x3e9c18ef	0.30487773
101	0x3e1e8eb5	0.15484126
102	0x3e5d09b5	0.21585734
103	0x3e0a1e9d	0.1348824
104	0x3e9e2744	0.30889332
105	0x3e60b7e6	0.21945152
106	0x3e3b60bd	0.18298621
107	0x3e8fbb02	0.28072363
108	0x3d89bb2d	0.06725154
109	0xbecf5c5d	-0.40500155
110	0xbdee9138	-0.11648792
111	0xbdaa8b07	-0.083272986
112	0xbeb4ca09	-0.3531039
113	0xbdc22f31	-0.09481657
114	0x3c97c5ac	0.018526874
115	0xbe665af0	-0.22495627
116	0xbd90d50a	-0.07071884
117	0x3e053fd0	0.13012624
118	0xbe85122d	-0.2599043
119	0xbea63eb9	-0.3246973
120	0x3da70828	0.081558526
121	0xbe8706bd	-0.26372328
122	0xbe3430ce	-0.17596743
123	0x3d72e688	0.059301883
124	0xbe281b3b	-0.16416638
125	0xbe235f6b	-0.15954368
126	0xbdda5789	-0.10661227
127	0x3e81b222	0.25331217
128	0xbea7b803	-0.32757577
129	0xbe45cccd	-0.19316407
130	0x3dfd7f07	0.12377744
131	0xbe96610f	-0.29370925
132	0xbd84e38f	-0.06488716
133	0x3e141d2f	0.14464258
134	0xbe4fe008	-0.20300305
135	0xbe499a6f	-0.19687818
136	0xbebf19f9	-0.37324503
137	0xbe67f49c	-0.22651905
138	0xbe626c70	-0.22111678
139	0xbec031ec	-0.37538087
140	0xbe5e0569	-0.21681751
141	0xbe6a72e3	-0.22895388
142	0xbe4a2774	-0.19741613
143	0xbdfc411d	-0.12317107
144	0xbe6c07ca	-0.23049846
145	0xbe6c65e6	-0.23085746
146	0xbeb64068	-0.35596013
147	0xbed4a81b	-0.41534504
148	0xbe7ffb23	-0.24998145
149	0xbebe22e0	-0.37135983
150	0xbea88ff3	-0.32922325
151	0xbed92498	-0.4241073
152	0xbeb3c324	-0.35109818
153	0x3df57e04	0.11986926
154	0x3e489372	0.19587496
155	0xbdee59dc	-0.11638233
156	0x3dd6843e	0.10474442
157	0x3e8b0d56	0.27158612
158	0xbdf945e8	-0.12171537
159	0x3e35ae08	0.17742169
160	0x3e44cf80	0.1921978
161	0xbdc87fe9	-0.09790022
162	0x3dd75446	0.10514121
163	0x3e844879	0.25836542
164	0xbd98f8a3	-0.07469299
165	0x3e9daced	0.30795994
166	0x3e35a429	0.17738403
167	0xbe75cd11	-0.24004008
168	0x3e5447f8	0.20730579
169	0x3db8cb17	0.09023111
170	0xbda048ae	-0.078263626
171	0x3e7fdc14	0.24986297
172	0x3eb0fbc4	0.34567082
173	0xbece1eca	-0.40257865
174	0x3e16cbf3	0.14726238
175	0x3eae19a0	0.34003925
176	0xbeeee540	-0.4665928
177	0x3e0b4fba	0.13604632
178	0x3e3de0ac	0.18542737
179	0xbe624630	-0.22097087
180	0xbde58c72	-0.112084284
181	0xbd0150a1	-0.031571034
182	0xbdfe4930	-0.12416303
183	0xbdcb716b	-0.09933742
184	0xbe022e92	-0.12713078
185	0xbd072e98	-0.03300342
186	0xbd8c65e8	-0.068553746
187	0xbdab60c1	-0.08368064
188	0xbe41f6b3	-0.18941765
189	0xbd021615	-0.03175934
190	0xbd86ce2c	-0.06582293
191	0x3ddaf520	0.10691285
192	0x3d81bde0	0.06335044
193	0xbdf0e7fb	-0.11762997
194	0x3d089f44	0.033355013
195	0x3d9e8a74	0.077412516
196	0xbd242b5d	-0.040080417
197	0x3dd0b953	0.10191598
198	0x3e191a18	0.1495136
199	0xbe60ae69	-0.21941532
200	0xbc9798e4	-0.018505521
201	0x3f3de1b2	0.7417251
202	0x3ee36132	0.44410092
203	0x3dd160e4	0.102235585
204	0xbdeb8fb0	-0.115020156
205	0xbda3011d	-0.07959197
206	0x3d32d889	0.043663535
207	0x3e130176	0.14356026
208	0x3d40904d	0.047012616
209	0xbd9a8639	-0.07545132
210	0x3d45396d	0.04815047
211	0x3c784780	0.015153766
212	0xbce343d6	-0.027742308
213	0xbe0b878c	-0.13625926
214	0xbe0fd973	-0.14047794
215	0x3d0bb40b	0.03410725
216	0xbdbe38bf	-0.09288167
217	0xbe00f5b2	-0.12593725
218	0xbbeb3257	-0.007177632
219	0xbc7e99af	-0.015539571
220	0x3d9483cf	0.07251703
221	0xbc99ff14	-0.018798389
222	0x3d2dcb5e	0.042430274
223	0x3b20889a	0.0024495483
224	0xbe2103ff	-0.1572418
225	0xbddefe99	-0.108884044
226	0xbe5a0bcd	-0.21293564
227	0xbe336a97	-0.1752113
228	0x3d73c8fc	0.059517846
229	0xbe73620c	-0.2376787
230	0xbd815f03	-0.0631695
231	0xbb8e3d5a	-0.00434081
232	0xbd4267d2	-0.047462292
233	0xbdcbe222	-0.09955241
234	0xbec913d5	-0.39272943
235	0xbec9448d	-0.39310113
236	0xbe6fbdbf	-0.23412226
237	0xbe43e569	-0.19130482
238	0xbe4c95c7	-0.1997901
239	0xbe81f25d	-0.2538022
240	0xbe4253d3	-0.18977289
241	0xbe9ba87a	-0.30401975
242	0xbe6324a4	-0.22181946
243	0xbbf6fffb	-0.0075378395
244	0x3e6e5ced	0.23277636
245	0x3c5868a4	0.013208542
246	0xbe60415f	-0.21899937
247	0x3e9d4e9c	0.30724037
248	0xbe66dd23	-0.22545294
249	0xbc5f2609	-0.013619908
250	0x3ec2f77d	0.38079444
251	0xbde73316	-0.11289041
252	0xbd0bd9a8	-0.03414312
253	0x3cbf1746	0.023326527
254	0x3dc836ec	0.097761005
255	0xbec262cd	-0.37966004

cnn.0.bias f4 [32]
0	0xbea5aff9	-0.3236082
1	0xbbc1a8f8	-0.005910035
2	0xbea92d83	-0.33042535
3	0xbc1f1d6b	-0.009711604
4	0xbe08241b	-0.13295023
5	0xbc12fdf0	-0.008971676
6	0x3b4e221d	0.0031453439
7	0xbe92c4f0	-0.28665876
8	0xbedb2943	-0.42804918
9	0xbd9c1bb4	-0.076224715
10	0x3cd81988	0.026379362
11	0xbe0493f3	-0.12947063
12	0x3ccd0c17	0.025030179
13	0xbc53a017	-0.012916586
14	0x3da1dd3b	0.079035245
15	0x3d550562	0.052007087
16	0xb89a381f	-7.3537456e-05
17	0xbd262788	-0.040565044
18	0xbcc09379	-0.02350782
19	0xbdfd102c	-0.123566
20	0xbe114932	-0.14188078
21	0xbba945dd	-0.005165799
22	0xbd56dd53	-0.052457165
23	0xbb61787c	-0.003440409
24	0x3e188390	0.14893937
25	0x3e7442f3	0.23853664
26	0x3e3b6c67	0.18303071
27	0xbd3c1b28	-0.045924336
28	0xbc6a3044	-0.014293734
29	0xbba39c70	-0.004993014
30	0xbe085e1a	-0.13317147
31	0xbbcf088f	-0.006318159

cnn.3.weight f4 [32, 32, 3, 3]
0	0xbf40aa5d	-0.75259954
1	0xbea9b35a	-0.33144647
2	0x3e0bee5c	0.13665146
3	0xbf34b031	-0.70581347
4	0xbe98b6ba	-0.2982691
5	0x3e2be2c8	0.16785729
6	0xbf1f0293	-0.621133
7	0xbea431e4	-0.32069314
8	0x3da2f102	0.07956125
9	0xbd143b59	-0.03618941
10	0xbbcd29f1	-0.0062611033
11	0xbd7190cc	-0.05897598
12	0x3c9e13d2	0.01929656
13	0x3c4e53cf	0.012593224
14	0xba151c54	-0.000568812
15	0xbbe57786	-0.0070027737
16	0x3ce10257	0.027466936
17	0x3ded60c5	0.11590723
18	0xbf69a2f5	-0.9126428
19	0xbe4c7dc8	-0.19969857
20	0x3e3821e1	0.17981674
21	0xbf63de11	-0.8901072
22	0xbe5a2b6e	-0.2130563
23	0x3e78afc6	0.24285802
24	0xbf52d476	-0.8235544
25	0xbe80d946	-0.25165766
26	0x3e1cce53	0.15313081
27	0xbe75e109	-0.24011625
28	0xbeea293e	-0.4573459
29	0x3dc3ae08	0.09554678
30	0xbe446b5f	-0.19181584
31	0xbf0115e6	-0.5042404
32	0x3d3948bb	0.045235377
33	0xbec534d3	-0.38516864
34	0xbeb59986	-0.35468692
35	0x3da12d48	0.07869965
36	0xbca282f4	-0.019837834
37	0x3d35d8e3	0.044396292
38	0x3bb83b02	0.0056222687
39	0xbe9f5c07	-0.311249
40	0xbaf77593	-0.0018879644
41	0xbc22a6a8	-0.009927429
42	0xbe1d3e4b	-0.15355794
43	0xbd4ebfa0	-0.050475717
44	0xbdc0d1ef	-0.09415042
45	0xbee69406	-0.45034808
46	0xbdc5c641	-0.096569546
47	0x3c66f8c9	0.014097401
48	0xbee4ca46	-0.44685572
49	0xbd909092	-0.070588246
50	0x3d8aded1	0.0678078
51	0xbeff0bd7	-0.4981372
52	0xbdab525c	-0.08365318
53	0x3bf3b635	0.0074374923
54	0x3d800c43	0.06252339
55	0x3de8a539	0.11359639
56	0x3d0a1e4a	0.033720292
57	0x37fa10d5	2.981016e-05
58	0x3d686eed	0.056746412
59	0xbd6f3957	-0.058404293
60	0x3dbd4b33	0.09242859
61	0x3d7b0624	0.061285153
62	0x3cea8708	0.028628841
63	0xbe9717f8	-0.29510474
64	0x3e4a672c	0.1976592
65	0xbd576519	-0.05258665
66	0xbecd4394	-0.4009062
67	0x3e7ca6c5	0.24672993
68	0xbd46852c	-0.048466846
69	0xbf0e5687	-0.5560078
70	0x3e693dc6	0.22777471
71	0x3d240176	0.040040456
72	0xbf340c91	-0.70331675
73	0xbefa5aff	-0.4889755
74	0xbd235ae7	-0.039881613
75	0xbf497927	-0.7870049
76	0xbf06a1da	-0.52590716
77	0xbbc8b773	-0.0061253845
78	0xbf393927	-0.7235283
79	0xbf0a448c	-0.54010844
80	0xbd8f60d6	-0.07000892
81	0x3dab1a05	0.08354572
82	0x3ea55366	0.3229019
83	0x3e25d8c3	0.1619597
84	0xbd664287	-0.05621579
85	0x3e000575	0.12502082
86	0xbc9f0bec	-0.019414864
87	0x3da355a5	0.0797532
88	0x3c5da055	0.013526996
89	0xbd3dfe4f	-0.046385106
90	0xbe7090ee	-0.23492786
91	0xbcba74eb	-0.022760829
92	0x3d9717de	0.07377599
93	0xbec3065f	-0.38090798
94	0xbdcf6818	-0.10127276
95	0x3e26f8a2	0.16305783
96	0xbe9ff89d	-0.31244364
97	0xbd83a0ef	-0.0642718
98	0x3dbab0ee	0.09115778
99	0xbe6633a3	-0.22480635
100	0xbe0b53ef	-0.13606237
101	0x3e069a73	0.13144855
102	0xbe743eef	-0.23852132
103	0xbe0877de	-0.13326976
104	0x3d7d2024	0.06179823
105	0xbe5f1564	-0.21785504
106	0xbe2d9a74	-0.1695345
107	0x3d266e98	0.040632814
108	0xbd4999f4	-0.049219087
109	0x3d8895bf	0.06669187
110	0xbeaab37d	-0.33340064
111	0xbd282095	-0.041046698
112	0x3ccd1b28	0.025037363
113	0xbe838f9b	-0.256955
114	0x3cda64da	0.026659418
115	0x3dd5ed4c	0.104456514
116	0xbe770591	-0.24123217
117	0xbd2b9126	-0.04188647
118	0x3d1dbc55	0.038509686
119	0xbcabe42c	-0.020982824
120	0xbd14dbc3	-0.036342394
121	0xbd54fe36	-0.052000247
122	0xbd9adb76	-0.0756139
123	0x3b4709f6	0.0030370927
124	0xbd68456f	-0.056706842
125	0xbd2a0b98	-0.041514963
126	0xbed6d6f3	-0.41960868
127	0xbdc8807d	-0.09790132
128	0x3e042fbe	0.12908837
129	0xbf0a3f39	-0.5400272
130	0xbd4a3ce9	-0.049374495
131	0x3ddda11a	0.10821743
132	0xbf02e7a8	-0.5113473
133	0xbcea905a	-0.028633285
134	0x3e0a75dd	0.13521524
135	0x3e39257e	0.18080708
136	0xbbc4d9cf	-0.00600741
137	0xbdc875fe	-0.0978813
138	0x3e0bff68	0.13671649
139	0xbca6441c	-0.020296149
140	0xbe0401be	-0.1289129
141	0x3e0160c4	0.1263457
142	0x3d35682d	0.044288803
143	0xbde52a38	-0.11189693
144	0xbc91368e	-0.017726209
145	0x3dbffe3f	0.093746655
146	0xbcf63d76	-0.030058604
147	0x3aa51a5f	0.001259636
148	0x3d559007	0.05213931
149	0xbb275205	-0.0025531065
150	0xbc8a4601	-0.016879084
151	0x3d89247d	0.06696413
152	0xbe0292d4	-0.12751323
153	0xbf24f2e3	-0.64433116
154	0x3ea9583b	0.33075127
155	0x3e413635	0.18868335
156	0xbf4b747b	-0.7947461
157	0x3eb4cba1	0.35311607
158	0x3e78e85b	0.24307387
159	0xbecf029b	-0.40431675
160	0x3ea058ce	0.31317753
161	0x3e8ff2da	0.2811497
162	0xbc771c2c	-0.0150824
163	0x3c740917	0.014894745
164	0x3dcfebb6	0.1015238
165	0xbe1926f2	-0.14956263
166	0x3e0a02ea	0.13477674
167	0xbdef323f	-0.116795056
168	0xbcb4b5c3	-0.022059327
169	0xbd889e68	-0.066708386
170	0xbddbab88	-0.10726076
171	0xbd7896eb	-0.0606908
172	0xbd56ed38	-0.052472323
173	0x3d32d18e	0.04365688
174	0xbda816cd	-0.08207474
175	0x3c09b0b1	0.008403943
176	0x3d11403f	0.03546166
177	0xbcf56195	-0.029953757
178	0xba76d6cf	-0.0009416164
179	0x3c529fd3	0.012855488
180	0x3d1b6922	0.03794206
181	0xbd5d1228	-0.053972393
182	0x3d8f39b6	0.06993429
183	0x3ce82bd4	0.028341211
184	0xbba87608	-0.0051410235
185	0x3db93e11	0.09045041
186	0xbd088bb9	-0.033336375
187	0x3d025067	0.03181496
188	0x3d85b7b4	0.06529179
189	0xbd15909e	-0.03651487
190	0x3d01978c	0.031638667
191	0x3d0e9ae6	0.03481569
192	0xbc243104	-0.010021452
193	0xbc39b533	-0.011334705
194	0xbd3c5e4d	-0.04598837
195	0xbbf58f4c	-0.007493889
196	0xbc5a563b	-0.013326223
197	0x3d0c087c	0.03418778
198	0xbdc26727	-0.09492331
199	0xbd2af0b8	-0.041733474
200	0xbd151924	-0.03640093
201	0xbd96cede	-0.073636755
202	0xbc99b462	-0.018762771
203	0x3c7948d3	0.015215117
204	0xbd072f4b	-0.033004086
205	0xbd969ce9	-0.07354147
206	0x3c1e8bf1	0.009676919
207	0xbdc1de48	-0.09466225
208	0xbc9ddc1d	-0.019269997
209	0xbcea072e	-0.028567877
210	0xbe02f6a3	-0.12789397
211	0xbbf9abb7	-0.007619347
212	0xbd37a608	-0.044836074
213	0xbd192115	-0.037385065
214	0xbd3828dc	-0.04496084
215	0xbc0750f1	-0.008259044
216	0xbf05cd75	-0.5226663
217	0xbe617b61	-0.22019722
218	0x3e026220	0.12732744
219	0xbedfda94	-0.4372145
220	0xbe8defe1	-0.27722076
221	0x3cee2c0e	0.029073741
222	0xbecf5918	-0.4049766
223	0xbe5b95ab	-0.21443813
224	0xbc3c9e6a	-0.011512378
225	0xbf41c163	-0.7568571
226	0xbe9c2c1b	-0.305024
227	0x3d359c3e	0.044338457
228	0xbf10785f	-0.5643367
229	0xbeccefc0	-0.40026665
230	0xbd80ba3d	-0.06285522
231	0xbf07fc84	-0.53119683
232	0xbede2d10	-0.43393755
233	0xbd8f10bf	-0.06985616
234	0x3e2565eb	0.1615216
235	0xbdb0cdaa	-0.08632977
236	0xbe0b65c2	-0.13613036
237	0x3e1cb779	0.15304364
238	0x3cf198d1	0.029491814
239	0xbdfbf853	-0.123032235
240	0x3e16e2f6	0.14735016
241	0xbc128d1d	-0.008944777
242	0xbdf38710	-0.118909955
243	0xbf2799a8	-0.65468836
244	0x3c308712	0.010774391
245	0x3d57bf6a	0.05267278
246	0xbf374ce7	-0.7160172
247	0x3d623e3a	0.055235125
248	0x3ca65abc	0.020306937
249	0xbed93ee8	-0.42430806
250	0x3dffbba6	0.12486963
251	0xbd30222b	-0.043001335
252	0xbcd75604	-0.026286133
253	0x3eb194cc	0.34683836
254	0x3e0f4279	0.13990201
255	0xbd95e6d8	-0.073194206

cnn.3.bias f4 [32]
0	0x3da915b9	0.082560964
1	0x3e898122	0.26856333
2	0xbd503dae	-0.050840072
3	0xbd22503d	-0.039627302
4	0xbb42706c	-0.002966906
5	0x3d933c86	0.07189278
6	0x3d40c03d	0.047058333
7	0xbda0c62a	-0.07850297
8	0xb98a814b	-0.00026417742
9	0xbe25ede0	-0.16204023
10	0x3eb0b6eb	0.34514555
11	0x3ed31c9f	0.41232774
12	0x3e8165b7	0.25272915
13	0xbdf78905	-0.12086681
14	0xbc8ac943	-0.016941672
15	0x3cd666db	0.026172092
16	0x3ec7dd58	0.3903606
17	0xbd5e3969	-0.05425397
18	0x3bac51e2	0.0052587846
19	0xbd0de7df	-0.034644958
20	0xbda5d169	-0.080965824
21	0xbe2ea4bb	-0.17055027
22	0x3e19f277	0.15033899
23	0xbd0166ad	-0.03159206
24	0x3ccf7141	0.025322558
25	0xbd71a84c	-0.05899839
26	0x3d3a348e	0.045460276
27	0xbd638037	-0.055542197
28	0x3e2e677e	0.17031667
29	0x3e4efb0b	0.20212953
30	0xbdd878e3	-0.10569932
31	0xbd321cac	-0.043484375

mlp.weight f4 [1, 1280]
0	0x3ed6a4da	0.41922647
1	0x3e051980	0.12998009
2	0x3efe19ca	0.4962905
3	0xbe19fe85	-0.15038498
4	0x3e53b6d9	0.2067522
5	0x3ebbe7f2	0.36700398
6	0x3d68e195	0.056855757
7	0x3ead87d5	0.33892694
8	0xbebfd4b1	-0.37466958
9	0x3e4aa8e0	0.19790983
10	0x3e8c9b34	0.2746216
11	0x3e180fbf	0.14849757
12	0x3e099a24	0.13437706
13	0xbea8d9f0	-0.32978773
14	0x3e0d4b99	0.1379837
15	0x3e119174	0.14215642
16	0x3d8b1a02	0.0679207
17	0xbe66a70d	-0.22524662
18	0xbe52811d	-0.20557065
19	0x3e0d2209	0.13782515
20	0x3d407dc5	0.046994943
21	0xbcf5993f	-0.0299803
22	0xbdd077ff	-0.101791374
23	0xbe521df6	-0.20519242
24	0x3ce224ed	0.027605498
25	0x3e794afe	0.24345013
26	0x3d58feec	0.052977487
27	0xbd804e66	-0.06264953
28	0xbdc6c405	-0.097053565
29	0x3c2e72f0	0.01064752
30	0x3e386ca6	0.18010196
31	0xbd03d598	-0.03218612
32	0xbd87935d	-0.06619904
33	0x3cf724d0	0.03016892
34	0xbd0c8e01	-0.034315113
35	0x3e18a881	0.14908029
36	0xbdecad45	-0.11556486
37	0xbe88f46d	-0.26748982
38	0x3dd5eafb	0.104452096
39	0xbd4becb4	-0.049786285
40	0x3e71dd65	0.23619612
41	0xbe99e6f7	-0.30059025
42	0x3d11f3dd	0.035632957
43	0xbe868e94	-0.26280653
44	0x3e521149	0.20514406
45	0x3e6f9862	0.23397973
46	0xbe67c8fd	-0.22635265
47	0xbdd5dfda	-0.10443087
48	0xbf142153	-0.5786335
49	0x3e7f615e	0.24939486
50	0x3e48dae6	0.19614753
51	0xbde48659	-0.11158437
52	0xbea10ff0	-0.31457472
53	0xbeef7ef1	-0.46776536
54	0x3e36f664	0.17867428
55	0x3e17ee8a	0.14837089
56	0xbd9ccb7c	-0.07655999
57	0xbea89671	-0.32927278
58	0xbe63ed06	-0.22258386
59	0x3e76623d	0.24060912
60	0x3d823a5b	0.06358787
61	0xbda0b978	-0.07847875
62	0xbe2065c8	-0.15663826
63	0xbdf2297f	-0.11824321
64	0x3e237338	0.15961921
65	0x3e53d205	0.20685585
66	0x3cfae822	0.030628268
67	0x3dfd73ed	0.12375627
68	0x3bc8ad16	0.006124149
69	0x3e2c31e5	0.16815908
70	0x3e601e2f	0.21886514
71	0x3de1402d	0.10998569
72	0x3e3d8261	0.18506767
73	0x3dd94a20	0.10609841
74	0x3de9ca5e	0.114155516
75	0x3e8d6e2c	0.27623117
76	0xbe0c52f8	-0.13703525
77	0x3e0e7445	0.13911541
78	0x3e6e2758	0.23257196
79	0x3def0b1d	0.116720416
80	0x3d55b16a	0.05217115
81	0x3e2f2a3d	0.17105956
82	0x3ccca1d5	0.024979511
83	0x3d343072	0.043991514
84	0xbcc41836	-0.023937326
85	0x3c86c520	0.016451418
86	0x3e109268	0.1411835
87	0xbd28729d	-0.04112493
88	0xbd868ca0	-0.06569791
89	0x3c82b877	0.0159571
90	0x3d729cbe	0.059231512
91	0x3e2c3e84	0.16820723
92	0xbd816ff9	-0.06320185
93	0xbdcd2fd8	-0.10018891
94	0x3d58f3e3	0.052966963
95	0x3d13b9f2	0.036066003
96	0x3df2c583	0.118540786
97	0xbe468002	-0.19384769
98	0xbe362dc1	-0.17790891
99	0xbd1dca27	-0.038522866
100	0x3d58b1cd	0.05290394
101	0x3db9a572	0.09064759
102	0xbe59ecd2	-0.21281746
103	0xbdc8cba6	-0.09804468
104	0xbd8e6c2e	-0.069542274
105	0x3d2f9ad8	0.04287228
106	0x3e1d7a4c	0.15378684
107	0xbd9a8a4b	-0.075459085
108	0x3df5a211	0.11993802
109	0x3d2bc55b	0.04193626
110	0x3c765b31	0.01503639
111	0x3da2fc21	0.07958246
112	0xbd3ce356	-0.046115242
113	0x3ddb93c6	0.10721545
114	0x3bde7e9f	0.0067899968
115	0x3d4ffb39	0.050776694
116	0xbdcef411	-0.10105146
117	0xb9fe7430	-0.00048533222
118	0x3d82cddd	0.063869216
119	0x3cd276ff	0.025691507
120	0xbcf4f514	-0.029902019
121	0x3cecda50	0.028912693
122	0x3c404e96	0.011737486
123	0x3d111b2e	0.03542631
124	0xbca085a5	-0.019594977
125	0xbd380163	-0.044923197
126	0x3cfc064f	0.030764727
127	0x3c66c6cb	0.014085482
128	0x3a72b28f	0.00092581747
129	0xbd4bf551	-0.0497945
130	0xbd1304ba	-0.03589318
131	0x3d4ed178	0.050492734
132	0xbb406c12	-0.002936129
133	0xbd3d3336	-0.046191417
134	0xbd40e5d4	-0.04709418
135	0xbba6ee40	-0.0050943196
136	0x3dab012b	0.08349832
137	0xbbbda48c	-0.005787438
138	0xbd0d4fe4	-0.034500018
139	0xbd3fc493	-0.046818327
140	0x3cd0d770	0.025493354
141	0x3da4df0a	0.08050354
142	0xba70e2c2	-0.0009189063
143	0xbcac7668	-0.021052554
144	0xbd24dc78	-0.040249318
145	0x3abd0f9a	0.0014424205
146	0x3d881770	0.06645095
147	0x3a1b3f4e	0.0005922214
148	0xbd08cf58	-0.033400863
149	0xbd40258f	-0.04691082
150	0x3ccdec2e	0.025137033
151	0x3d8c014d	0.068361856
152	0xbc82712c	-0.015923105
153	0xbcad86fd	-0.021182531
154	0xbc564dff	-0.013080119
155	0x3bb2f096	0.005460809
156	0x3d763358	0.06010756
157	0x3b87050b	0.004120474
158	0xbc8bdbd3	-0.017072594
159	0x3ca47e87	0.020079864
160	0x3e5420cf	0.2071564
161	0xbe8d9876	-0.2765538
162	0x3e38c103	0.18042378
163	0xbd903f37	-0.07043307
164	0x379f5422	1.8993454e-05
165	0x3dc7ab09	0.09749419
166	0xbe73fc4c	-0.23826712
167	0x3c495cd8	0.012290202
168	0xbde79765	-0.11308173
169	0x3d18d85d	0.037315715
170	0x3d3c4591	0.04596478
171	0xbda4b64a	-0.080425814
172	0xbe3749a9	-0.17899193
173	0xbe57d7fa	-0.21078482
174	0x3c730e47	0.014834947
175	0x3db1535e	0.08658479
176	0x3d4286fe	0.04749202
177	0xbe59feab	-0.21288554
178	0xbdc92d25	-0.09823064
179	0x3b9d01e9	0.0047914875
180	0x3d8f7824	0.07005337
181	0x3dc1cdb6	0.094630644
182	0xbd58e90e	-0.052956633
183	0xbe067d49	-0.1313373
184	0xbde66954	-0.112505585
185	0x3e74d95b	0.2391104
186	0x3de5faa4	0.112294465
187	0x3c2292d7	0.009922705
188	0xbe02ac58	-0.12761056
189	0xbdf43dfe	-0.119258866
190	0x3e9bfbc8	0.3046553
191	0x3e03a433	0.12855606
192	0x3e1ca432	0.1529701
193	0x3d033629	0.032034073
194	0xbd596ea3	-0.053084027
195	0x3ea6f7c9	0.3261092
196	0xbe48b17f	-0.1959896
197	0x3e533ead	0.20629378
198	0x3df5181f	0.11967491
199	0x3d236ac7	0.039896753
200	0x3ef7fa1f	0.48433015
201	0x3eb2b039	0.34900072
202	0x3efe03d0	0.49612284
203	0xbe5ba6de	-0.21450374
204	0x3e4bac87	0.19890033
205	0x3eeaa335	0.45827642
206	0x3e6e63cc	0.23280257
207	0x3e805c68	0.250705
208	0xbeca9a09	-0.39570644
209	0x3e558f03	0.20855336
210	0x3eba2b5a	0.363612
211	0x3e842dc9	0.2581618
212	0x3c03ecd7	0.0080520725
213	0xbed025b5	-0.40653768
214	0x3e070cec	0.13188523
215	0x3e9024b0	0.2815299
216	0x3e8aac8b	0.27084765
217	0xbec530ca	-0.38513786
218	0xbec9c8b2	-0.3941093
219	0x3d1852da	0.03718839
220	0x3e33c2c9	0.17554773
221	0x3e4b02e9	0.19825329
222	0xbf00edf6	-0.503631
223	0xbf332061	-0.6997128
224	0xbe06868c	-0.13137263
225	0x3e9541c7	0.29151747
226	0x3eab9f79	0.33520105
227	0xbcb776b1	-0.022395464
228	0xbeeb39b7	-0.4594247
229	0x3c4a1466	0.012333965
230	0x3e55b442	0.20869544
231	0x3eab94a4	0.3351184
232	0xbd7f9ffa	-0.062408425
233	0xbe517a53	-0.20456819
234	0x3d0aa3be	0.033847563
235	0x3e1c8ae9	0.15287365
236	0x3e531917	0.2061504
237	0xbdd47362	-0.1037357
238	0xbdd133ed	-0.10214982
239	0xbb063800	-0.0020480156
240	0x3d0df57d	0.034657944
241	0x3e957faf	0.29198977
242	0x3e75af37	0.2399262
243	0x3e61c446	0.22047529
244	0x3dd02864	0.10163954
245	0xbd3f2247	-0.04666355
246	0x3df76aac	0.12080893
247	0x3e03f455	0.12886174
248	0x3dfcac6c	0.12337574
249	0xbd14973b	-0.036277037
250	0xbe8b592c	-0.2721647
251	0xbe0b8c8c	-0.13627833
252	0xbe0d0e74	-0.13775045
253	0xbd1511cd	-0.03639393
254	0xbe162cfe	-0.146656
255	0xbeb143d1	-0.34622052
